models/best_one_eye.pt (torch, 623774 bytes, 50 tensors)

first_eye.0.weight f4 [32, 3, 7, 7]
00000000: b72b 6d3d 8aa4 1e3e ee74 dc3d f8dc fc3d
00000010: 950e 743d 1e0c 0f3e 52a2 403d 859e a33d
00000020: ef43 f53d 5620 033e 6af8 b83d 5283 c73d
00000030: 57d1 e43d 1a9f bd3c 3573 cc3d d14f 183e
00000040: 6984 b73d 7fee 193d ac77 5d3c a46b 893d
00000050: d19c eabc 925d de3d 1994 703d 0825 ed3d
00000060: 4789 c83d 4c5b 0f3d 0642 d83d 0afa 863d
00000070: ef7b 903b f003 ed3d 2ca7 a13c 01fe 363d
00000080: 852e 973d 1496 e3bb 0205 153b 6cee bebe
00000090: 6cda 633c 7fda 09bd 847f 15bd dae9 cebd
000000a0: 8f00 94bc 2228 f2bd 2beb adbe d845 bebd
000000b0: aeff f6bd c172 66bd caeb 39be 8d29 12bd
000000c0: 8244 fabd 5399 093d ef37 c7ba 3184 653d
000000d0: df94 8b3d ae5d 1d3e a9a3 b23d ef44 433d
000000e0: b89c 303d 72fc 853d 61d5 943d 9399 c93d
000000f0: a123 dd3d 567c e03d 8125 a13c ab29 213e
00000100: a299 123e 4974 693e c967 623d 7fde e13d
00000110: 85fa 25bc 001f d0bd ae1e 593e 3582 713e
00000120: 1881 863e 6572 653e 03e5 6d3e dfa9 fd3d
00000130: dfb9 893c 9bd2 d33d a86e 4b3e 5e26 1b3e
00000140: 19cf f93d d2c0 303e ac34 b73d eabe 91bd
00000150: 32a3 ecbc d479 333e 1bb8 1f3e f2e1 3d3e
00000160: 6986 313e e889 9c3d 7a32 23be def8 7bbc
00000170: 2384 143e 86ad 363e d77d 113e c2d0 953d
00000180: 91fa 3c3d e3a8 0bbc 2b7a 183e 9d44 203e
00000190: 705a da3d cfea db3d 3b95 753d 1bc5 0b3e
000001a0: 06db 543d 299e 063e a6de 283e f0f3 063e
000001b0: 0105 ff3d 1961 133e 25e7 e63d 71b8 4d3d
000001c0: 67de af3d da17 1a3e 3a7a e73d 5fb6 083e
000001d0: 44e7 293e fafc 7d3d 8450 0a3e 9ba2 263e
000001e0: b79f 473e 2be0 c63d e9f5 243e 7cd0 013e
000001f0: 193d ef3d 7071 9c3d ad49 7b3d 5bc4 203e
00000200: 2582 1c3e 6247 8b3d bc29 133e cefb b03d
00000210: d181 073e 394f b73d 2fee 303e 6894 273e
00000220: 5963 933d 5ea9 f83d 9d83 f93d bf47 a33d
00000230: 314a 223e d104 ad3d ada2 dd3d 6cb0 0e3e
00000240: 5821 1c3e 035c 053e b15a 7f3d 0b3a d0bd
00000250: a8ef 6dbd 1f56 c63b 2cd9 06bc 8522 47bd
00000260: 5a7f b0bd 8f59 b7bd 49a7 82bd 24c8 e6bd
00000270: fbc7 debd 9103 08be d528 dbbc 550f 1fbd
00000280: 989f cdbd f147 dabd b610 20bd b8b3 a5bd
00000290: 57e5 f4bd 116f 99bd d443 49be a78c 0bbe
000002a0: ff15 8fbd da7e 9dbd 3b5b debd fbbb 08be
000002b0: bbcc 0cbe c337 21be b53d 0fbe b9e0 07be
000002c0: b4f5 06be 2cb3 a6bd ecd4 afbd c2b1 75bd
000002d0: 595a 2abe 401a 0ebe 4439 2ebe b2ed c5bd
000002e0: dae0 11be 4438 9ebd 3d52 cbbd 3121 66bd
000002f0: acf7 8dbd 7629 30be 9c63 20be d5d9 3bbe
00000300: 45d4 09be 7821 e2bd a8eb f2bd e1d3 d6bd
00000310: 818e 293e c7e4 ed3d e2e7 113e a9e8 4f3e
00000320: a19e 343e 7a3a 283e 7ba7 2f3e 83fc c63d
00000330: de8c 203e ddbb 343e 9a7a 263e d6b5 443e
00000340: 901a a73d 9146 233e 4307 183e 2188 083e
00000350: c5e0 df3d dd7a bd3d cb16 c53d 1ff8 213d
00000360: 631a 64bd c71f 2b3d 2918 143e 8bb3 863d
00000370: 9a8d 913d 4425 2c3d 46d9 83bd 84a1 0cbd
00000380: d431 1bbc 9380 d1bc f3f8 393c 7447 c23d
00000390: 29bc 8f3d b0b4 b9bd b23e b4bd dd8a 55bc
000003a0: 2ff0 433c d018 92bc 2b5e 1fbd 2ca2 543d
000003b0: 4289 87bd 43b1 92bd f5c6 0ebe 412b bdbd
000003c0: f0dc f7bd 3aec 48bd 485d 183d 069c 94bd
000003d0: e7be b4bc 4442 2e3e addd 323e b10a fd3d
000003e0: c79b 163e 500c 8c3d 423b d03d 6716 7a3d
000003f0: 3e41 58bc d86d bb3c 07ff f63d 2898 973d
0.057903018 0.15492454 0.1076449 0.12346834 0.05958422 0.13969466 0.0470298 0.079892196
0.11975848 0.12805304 0.09031756 0.09741844 0.11172741 0.023147155 0.099829115 0.14874198
0.08960802 0.037580963 0.0135173015 0.06709984 -0.028639229 0.10857691 0.058734987 0.11579329
0.097918086 0.034999177 0.10559468 0.0659066 0.0044093053 0.11573017 0.019733034 0.04467583
0.0738192 -0.006945381 0.002273858 -0.37291276 0.013907056 -0.03365564 -0.03649856 -0.101031974
-0.018066673 -0.11824061 -0.3396848 -0.092906654 -0.12060486 -0.05626178 -0.18156353 -0.035684157
-0.12220098 0.033593487 -0.0015199165 0.05603427 0.06815504 0.15367767 0.08722622 0.047673162
0.04311821 0.06542291 0.07267261 0.09843745 0.10797811 0.10961215 0.019671204 0.15738551
0.14316419 0.22798266 0.05527476 0.11028766 -0.010130529 -0.10162163 0.2120311 0.23584826
0.26270366 0.2240692 0.23231892 0.12385916 0.016812263 0.10342904 0.19866431 0.15151355
0.12197704 0.17261055 0.08945593 -0.07116492 -0.028886411 0.17526942 0.15597574 0.18543223
0.1733643 0.07643491 -0.15937224 -0.015379159 0.14503531 0.17839631 0.1420816 0.07315208
0.046137396 -0.008524152 0.14890353 0.15651174 0.10661781 0.107381456 0.05995677 0.13649409
0.05196669 0.13146271 0.16491184 0.13178992 0.12452126 0.14392509 0.11274556 0.050224725
0.08587342 0.15048161 0.1130261 0.13350819 0.16592127 0.062008835 0.13507277 0.16272967
0.1949452 0.097107254 0.16109432 0.12677187 0.11681575 0.07638824 0.06134956 0.15699904
0.15284021 0.068007246 0.14371389 0.08641778 0.13233115 0.089506574 0.1727836 0.16365206
0.071966834 0.12141679 0.12183306 0.07972669 0.15848614 0.08448184 0.108220436 0.13934487
0.15247095 0.13023381 0.06234235 -0.10167321 -0.058089882 0.006052747 -0.008230489 -0.048616905
-0.086180404 -0.08952629 -0.06379563 -0.112686425 -0.10877987 -0.1328261 -0.026752869 -0.03883298
-0.10040206 -0.10658253 -0.039078437 -0.08090919 -0.119578056 -0.07491887 -0.1965478 -0.13627873
-0.06986617 -0.07690211 -0.108572446 -0.13352959 -0.13749973 -0.15743928 -0.13988383 -0.13269319
-0.13179666 -0.08139643 -0.085855335 -0.059983976 -0.16636027 -0.13877201 -0.17014033 -0.096644774
-0.1424593 -0.077255756 -0.09927795 -0.056183998 -0.06932005 -0.17203316 -0.15662998 -0.18344815
-0.1345988 -0.1104154 -0.11861354 -0.104896314 0.16558267 0.116159014 0.14248613 0.20303597
0.17638637 0.16428557 0.17153732 0.097161315 0.15678737 0.17649789 0.16257706 0.1920999
0.08159363 0.15944888 0.1484652 0.13333179 0.10931543 0.0925195 0.09623488 0.039543267
-0.055689227 0.041778352 0.14462341 0.06577214 0.071070865 0.042027727 -0.06437926 -0.03433372
-0.009472329 -0.025574004 0.011350858 0.09486285 0.070183106 -0.090676665 -0.08801021 -0.013033596
0.01195912 -0.017834097 -0.038908165 0.05191247 -0.06617977 -0.07162716 -0.13943084 -0.09236766
-0.12102687 -0.04905341 0.037198335 -0.072563216 -0.022063686 0.17017466 0.17467375 0.12355555
0.14707862 0.06838286 0.101675525 0.06105652 -0.013199149 0.022879526 0.12060361 0.074020684

first_eye.0.bias f4 [32]
00000000: bacb babd afb4 e43d 5a51 bc3d b0a4 bf3d
00000010: d952 c03d 33e1 a13d d65c e5bd a5ef f23d
00000020: 0876 b33d 1e12 da3d 283d 803d 3897 afbd
00000030: dde0 cdbd 3741 aa3d 8b96 abbd 7223 b13d
00000040: c9b4 5d3d 2bc0 bebd e25f 97bd da8c 613a
00000050: 9a1b 84bd bac1 d93d d89f d23d ec2e d33d
00000060: d649 adbd bb2d bfbd 5418 c53d ad6c 62be
00000070: e09a fb3d 9867 df3d 120b f03d 4661 c0bd
-0.09120889 0.11167275 0.09195204 0.093575835 0.09390802 0.079042815 -0.11199348 0.11862115
0.08762747 0.10647987 0.06261665 -0.085737646 -0.10052655 0.0831322 -0.08378323 0.08649339
0.05412749 -0.09313997 -0.07391335 0.00086040574 -0.06450577 0.106326535 0.10284394 0.10311684
-0.08461349 -0.09334894 0.09623781 -0.22111769 0.122853994 0.10908431 0.117208615 -0.093935534

first_eye.1.weight f4 [32]
00000000: a7b5 823f 78e8 793f be24 803f ad48 203f
00000010: 90a0 933f a350 983f a465 8b3f 23c6 0c3f
00000020: d944 883f a905 673f 2335 763f 2abd 6c3f
00000030: 50fe a13f 4f51 6e3f c3c5 5c3f 2027 843f
00000040: 4f5c f03f 82e4 923f dd08 4b3f 62b1 653f
00000050: 53d2 713f 8f03 613f f886 4c3f c29c 7a3f
00000060: dd67 563f 32fe 343f 0ebb a43f 4776 a43f
00000070: 2f49 713f 3931 503f 832b 793f b078 8f3f
1.0211686 0.97620344 1.0011213 0.62610894 1.1533375 1.1899608 1.0890393 0.5498983
1.0646011 0.9024301 0.9617483 0.9247614 1.2655735 0.9309282 0.8623926 1.032444
1.877817 1.1475985 0.793104 0.8972379 0.94461554 0.87896055 0.79893446 0.97895443
0.8375223 0.7070037 1.2869585 1.2848595 0.94252294 0.8132511 0.9733202 1.1208706

first_eye.1.bias f4 [32]
00000000: 701b 383c bf86 c1bd 6009 253f 4720 3abf
00000010: 529b d03d 69b3 ac3c 4382 f93e 4661 80be
00000020: 1fe0 763d e505 043e 2755 f1bd 5428 1c3f
00000030: 4ee4 66bb c252 be3e 25aa 923c a7c0 f7bd
00000040: fbdd 013e 816b 2cbe 87e7 083e 42eb 44be
00000050: 15eb ba3d 509c afbd 321c 88be b1e0 bdba
00000060: 2af8 bcbd 5abe 6dbe 3700 13bc 9139 a03d
00000070: e36e e03a 60ea e33c 909a 9bbd 2b4e 3ebd
0.01123701 -0.09449529 0.6446743 -0.727055 0.10185875 0.021081643 0.48732194 -0.25074214
0.060272332 0.12892874 -0.1178382 0.60999036 -0.0035231295 0.37172514 0.017903397 -0.120972924
0.12682335 -0.16837884 0.1336957 -0.19230369 0.091268696 -0.08574736 -0.2658401 -0.0014486519
-0.09227021 -0.23217145 -0.008972219 0.0782348 0.001712289 0.02782172 -0.0759784 -0.046461266

first_eye.1.running_mean f4 [32]
00000000: c0ba c33f 7dd6 06bf ccd2 70be f5f3 cf3f
00000010: 079b 793e 3800 af3f 9e46 81bf 6705 6cbf
00000020: 9ace 7d3f ded2 41bf c7fe 1ac0 207b b4bf
00000030: ac11 b1be 20ee bdbf 0ae1 d9bf 475a ffbf
00000040: 5e4a 2abf 08b1 93bf bbe3 e8bf 6c5f c4bf
00000050: a016 fc3e bbd0 de3f c629 ac3d 5362 a1bf
00000060: 080e c13f e7eb c13f 54b3 983f b982 96bf
00000070: 1644 ddbf a461 db3f 09ea 84bf ca2b a1bf
1.5291367 -0.52671033 -0.23517913 1.6246325 0.24375544 1.3671942 -1.0099676 -0.92195743
0.99143374 -0.7571238 -2.4218004 -1.4100075 -0.34583795 -1.4838295 -1.7021801 -1.9949425
-0.66519725 -1.1538401 -1.8194498 -1.534162 0.49236012 1.740745 0.08406405 -1.2608131
1.5082407 1.5150117 1.1929727 -1.1758643 -1.7286403 1.7139173 -1.0383922 -1.2591488

first_eye.1.running_var f4 [32]
00000000: 60e4 7342 f253 5941 27c6 2c41 f69a a642
00000010: 0cc9 3e41 d1f6 0c41 1dc2 e440 ac25 c642
00000020: d5bc 7841 77a8 2142 1f04 7e41 392d 6f41
00000030: dcb5 4441 a086 e642 7c89 d742 f5a7 c242
00000040: 3098 0f41 3a54 4a41 81f5 e542 1a94 d642
00000050: f7ad bd42 7439 e742 7f43 8142 172b cf42
00000060: 12b4 e942 a274 d442 c2a3 5c41 65f9 e240
00000070: a3a9 db42 405e 8542 472a a241 f19e f740
60.973022 13.582994 10.798377 83.30266 11.924084 8.810258 7.1486955 99.07358
15.546102 40.414516 15.876006 14.948541 12.294399 115.26294 107.768524 97.32804
8.974655 12.645563 114.9795 107.28926 94.839775 115.61221 64.63183 103.58416
116.8517 106.2278 13.78998 7.0929437 109.83132 66.68408 20.270643 7.738152

first_eye.4.weight f4 [64, 32, 5, 5]
00000000: 10fc 223c eab3 a1bd 5251 9bbd 03f1 dcbd
00000010: 435f 06bd e781 213c df0e 3a3d 0e9c 9fbd
00000020: 2958 2c3d 2300 90bc a680 8b3d 8bdb 033d
00000030: 9fb0 1ebe cc2a 5f3c 69b3 49be 68c2 06bd
00000040: 02a7 a7bc 45a8 ecbd fa25 3ebd 044c 49be
00000050: 0ace ca3b 440e b1bb 7c63 04be d25a 01be
00000060: 8ada 71be 77fc 89ba 804c a4bd 4411 8f3d
00000070: 8063 02bd f921 ab3c ef93 dabd cdc1 9ebd
00000080: 3da1 39bd f225 04be 20c7 25bd ee12 73be
00000090: 9dfa bbbd 15bf 7ebe f33e 42be f9bf 75be
000000a0: d3cb 9abd 0ce2 38be 34e0 42be 4863 14be
000000b0: 9a54 febd 4f84 15bc c281 c2bd 14da b2bd
000000c0: 866e d7bd 8e4f 06be e8aa 00bd ad7b 82bd
000000d0: ca6e 0abd b102 1bbe 4bc1 08be 51b5 63bd
000000e0: 5f60 20be 6c07 33be 5409 2fbe c0de 94bd
000000f0: 924f f4bd c75b 74be 35c8 9fbe 81d7 65be
00000100: dbda ecbd c2b0 d13b 6fb8 edbd 0e76 72be
00000110: 1488 75be 71ee afbd 6043 f03d e25f 033c
00000120: 3482 10be 0ab1 00be 3c45 39be 1124 fabd
00000130: 1971 eabc 18ea b0bd 98c8 c2bd dc19 cabd
00000140: 129e f23c 2aaf e83d 3f2a 203d 9e69 2ebe
00000150: c395 0dbe 9e13 5a3d 9090 f8bc 7aa5 313d
00000160: bb2f 81bd fb6e 0abe add9 f63d 0b78 f7bd
00000170: 5114 c0bd 1e1a 09be 318d 14be 94d2 f7bc
00000180: fba5 3dbd 833c 92bd 0b37 20be 974a 3fbe
00000190: 64a3 7dbd f3fc 19be 410e 14be 0624 a9bd
000001a0: 7426 b13d ad92 ccbc fae8 a93d 781e 353d
000001b0: 9c4f 1c3d 05f7 a7ba 5201 f83c b3f1 753c
000001c0: 9655 0b3d e088 90bd a0f3 25bd a66f bcbd
000001d0: be39 2dbe 7e2b 13be 3f65 47be ae10 64be
000001e0: ac23 17be 6d9f 2fbe 751a 50be bc1b 49be
000001f0: 3ee4 38be a52b 9bbd 4a88 28be 7b9c 0dbe
00000200: 4e01 a23d 836b 613d 2eb6 8cbd 5d02 98bd
00000210: 1091 86bd 00bb e53d cf84 cc3c 6fa7 15bd
00000220: cbc6 bcbd 6ba9 ccbd dbdd 9cbd 2d18 b3bd
00000230: 6b6d 37bd 3692 8cbe 8397 e2bd a5f8 37be
00000240: 7955 81be c32e 09be 91cc 2cbe 9be1 19be
00000250: f916 2abe 112d 68be 9c06 47bd fa0e e2bd
00000260: 2483 17be a278 42be 8b1e febd 9153 4c3d
00000270: 351c 59bd 5c84 98bc 912e 77bd ac19 fabb
00000280: b3e5 0f3d 7eef 583c cb95 eabc 12fd a7bd
00000290: a913 abbd 8210 f73c 7367 023b 69d3 9ebc
000002a0: fb79 debd 8033 56bd d615 d7bd f548 87bd
000002b0: 4d4f c4bd ee0d 1fbe edc6 10be f82f 12be
000002c0: 607f f9bd 2b6f 2abd 7ca0 663d e29d a23d
000002d0: 7d63 24be 58f4 febd 9e1c 1abc 696d ac3d
000002e0: 163c 993d 7a61 49bd ae1f abbd b88c 003d
000002f0: ccb8 cc3d 57e9 0b3d f23a ffbd b10e 8cbd
00000300: 0faf 193d 8130 503d 2958 843d 7756 efbd
00000310: 629f debd 6863 14be fd2c 9cbc 6054 01bd
00000320: f61e 87bc c672 42bd 39a2 1dbe e2dc 7dbd
00000330: 69b8 0bbc 505c dd3d e988 d03d 64a3 b73d
00000340: 2120 a53d fe8f d33d befa ce3d 10a6 9f3d
00000350: 691e 873d f81d a43d 9c97 a73d e691 bebb
00000360: 1697 913d 8561 a7bd c99d d5bd a824 1cbe
00000370: 6202 dbbb c5a4 8d3c 8574 dfbd e91f f0bd
00000380: c64a 03be 66f2 38be abf4 4cbe b674 d439
00000390: ae05 e73d 7a6d e03d af31 d8bc 0ac0 a6bd
000003a0: 353d ee3d 2231 d93d b2e0 c63d 0319 053c
000003b0: 0088 ca3b 765d 45bc 9b08 523d 2121 39bd
000003c0: 36df 29be 845f d7bd 7e70 f13c 77b6 573d
000003d0: 6dae d53c 169a 07be a783 c7bd 32a5 82bd
000003e0: cb52 1d3d 0396 e23c 6641 0dbe 6249 d6bd
000003f0: 9c89 f3bd edb3 43bd e2f3 e63b d880 ff3c
0.009947792 -0.07895644 -0.0758387 -0.10788157 -0.032805692 0.009857631 0.04542434 -0.07793437
0.042076264 -0.01757819 0.06811647 0.032191794 -0.15497063 0.013621043 -0.19697346 -0.032900244
-0.020465378 -0.11555532 -0.046422936 -0.19657904 0.0061891126 -0.005403312 -0.12928575 -0.12632301
-0.23618522 -0.0010527511 -0.08022404 0.06985715 -0.03183317 0.020890223 -0.10672747 -0.07751808
-0.045319784 -0.129051 -0.040473104 -0.2373769 -0.0917866 -0.2487758 -0.18969326 -0.23999013
-0.07558408 -0.1805498 -0.19030839 -0.14490998 -0.1241848 -0.009125783 -0.094974056 -0.08733001
-0.105191275 -0.13116285 -0.03141299 -0.063712455 -0.033797063 -0.15137745 -0.13354985 -0.05559284
-0.15661763 -0.174833 -0.17093402 -0.07269049 -0.11929239 -0.23863135 -0.31207433 -0.2244549
-0.11565181 0.006399245 -0.116074435 -0.23677847 -0.23977691 -0.08590401 0.11731601 0.008018466
-0.14112169 -0.12567535 -0.18092817 -0.1221391 -0.028618382 -0.086384 -0.095109165 -0.098682135
0.02961639 0.11361535 0.03910279 -0.17032477 -0.13826661 0.053241365 -0.03034237 0.0433707
-0.06307932 -0.13518898 0.12053237 -0.12083443 -0.09378875 -0.13388869 -0.14506985 -0.030251779
-0.04630087 -0.07140448 -0.15645997 -0.18680798 -0.0619234 -0.15037899 -0.14458562 -0.08258824
0.086499125 -0.024972284 0.0829639 0.04421851 0.03816186 -0.0012814706 0.030274067 0.015011239
0.034017168 -0.07057357 -0.040515542 -0.09200983 -0.16916558 -0.1437206 -0.19472216 -0.22271988
-0.14759701 -0.1715066 -0.20322593 -0.19639486 -0.18055817 -0.07576684 -0.1645824 -0.13829224
0.07910405 0.05503417 -0.068706855 -0.07422326 -0.06570637 0.11217308 0.024965672 -0.03653663
-0.09217604 -0.099932514 -0.07659503 -0.087448455 -0.044782083 -0.274553 -0.11064055 -0.17965944
-0.25260523 -0.13396744 -0.16874911 -0.15027468 -0.16610326 -0.22673441 -0.048590288 -0.11038013
-0.1479612 -0.1899133 -0.12408169 0.049884383 -0.053005416 -0.018617801 -0.060347144 -0.007632455
0.035131168 0.013240693 -0.02863588 -0.08202566 -0.08353359 0.030159239 0.0019898086 -0.019387918
-0.1086311 -0.052295208 -0.10502212 -0.06605712 -0.09585438 -0.15532658 -0.14138384 -0.14276111
-0.12182498 -0.041609924 0.056305394 0.0794027 -0.16053577 -0.124489486 -0.009406237 0.08419306
0.074821636 -0.049165227 -0.08355652 0.0313842 0.09996185 0.034158077 -0.12462415 -0.0683874
0.037520465 0.050827507 0.06462128 -0.11686414 -0.108702436 -0.14491045 -0.01906442 -0.031574607
-0.016494256 -0.047472738 -0.15393914 -0.06197823 -0.0085278535 0.10808623 0.101823635 0.08966711
0.08062769 0.10330199 0.10106419 0.07795346 0.06597597 0.080135286 0.08183214 -0.0058157323
0.071088955 -0.08172897 -0.10430486 -0.15248358 -0.0066836337 0.017290482 -0.10910896 -0.117248364
-0.12821493 -0.18061218 -0.20015208 0.00040522747 0.1128038 0.10958381 -0.026390878 -0.08142097
0.11632768 0.106050745 0.09710826 0.008123639 0.0061807632 -0.012046209 0.051277738 -0.04519761
-0.16589054 -0.10516265 0.029472586 0.052664246 0.02608415 -0.13242373 -0.097419076 -0.06379165
0.038409036 0.027659422 -0.13794479 -0.104632154 -0.11891481 -0.047779012 0.007048116 0.031189367

first_eye.4.bias f4 [64]
00000000: c0a9 ff3d 04bf b9bd 54c3 e7bd 80bb e23d
00000010: 7a0f d63c 3bb5 cfbd 77d7 ca3d beca 803e
00000020: 6085 f03d 34d1 043e bb44 d93d c8bb bb3d
00000030: b266 fb3d 406f 8fbd 321d cf3d bac5 793d
00000040: 5fc2 ee3d 1d59 d93d fc94 b2bd acac 56bd
00000050: a249 17bd c4de 4ebe c33b dc3d 91e3 d93d
00000060: ed88 0b3e 9b87 dc3e 70c7 cf3d ba44 d93d
00000070: c08f ba3d 68c1 ae3d f94e b0bd bc7d 5c3e
00000080: bb44 d93d e1a1 e33d ffc4 1c3e e572 dd3d
00000090: 2986 0c3e d6f6 8a3e 562d 153e f54e b0bd
000000a0: 4269 1bbd 7d6a 4c3d 1f3a da3d 77a4 da3d
000000b0: b944 d93d 2fdc 8f3d 4253 a83d eba4 963e
000000c0: 7263 1c3c 6cca 59bd 5b04 d63d 318a e03d
000000d0: 0538 353e e376 4a3e d958 123e 3eda 883e
000000e0: 56ae 453e e12c d93d f94e b0bd cefc 56be
000000f0: 637b d93d 6efd fa3d be44 d93d 5872 42bd
0.12483549 -0.090696365 -0.11316553 0.11070919 0.026130427 -0.10141989 0.09904378 0.2515468
0.11744189 0.1297043 0.106088124 0.09166676 0.12275447 -0.07003641 0.101129904 0.060979582
0.11658167 0.106127 -0.08719823 -0.052410766 -0.036935456 -0.20202166 0.10753586 0.10639108
0.13626452 0.4307221 0.101454616 0.10608812 0.091094494 0.08532983 -0.08608813 0.21532339
0.106088124 0.1111486 0.15309523 0.1081293 0.13723053 0.27141446 0.14568076 -0.0860881
-0.03794218 0.049906243 0.10655617 0.106759004 0.10608811 0.070244186 0.08219005 0.29422697
0.009545194 -0.05317156 0.104500495 0.10963858 0.17697151 0.19771914 0.14291705 0.26729006
0.19304785 0.10604263 -0.08608813 -0.20994875 0.10619237 0.12255369 0.10608815 -0.047472328

first_eye.6.weight f4 [64]
00000000: 86a2 923f c176 593f 6ac1 863f bc80 5a3f
00000010: a044 913f d78f 8f3f 9b2e 723f f3da 853f
00000020: 8736 653f cfd7 3e3f 8de8 f73e f6bb 0b3f
00000030: b0a4 8f3f 68b8 7a3f ba05 713f 1ad4 813f
00000040: 081a 443f 0990 193f 924c 8c3f 55be 8e3f
00000050: f999 333f c50b 533f 18a5 4b3f f3c1 fd3e
00000060: 6b1d 163f 950d 713f 840e 393f 8dca 773f
00000070: 6cde 8f3f 7011 a23f cd66 673f 737d ae3f
00000080: c0c1 1a3f 63ca 7b3f 65fa 0b3f 4251 393f
00000090: 60ed 883f 3427 0040 e610 213f ce66 673f
000000a0: 0dd9 8d3f 01c9 723f c022 423f f832 ff3e
000000b0: 3c47 d23e 86af 803f 591b c03f 9f73 6d3f
000000c0: 317d 5c3f 23fd 843f f306 b03f f6e6 4f3f
000000d0: 79c9 7f3f b6d4 953f e91a 0a40 0c80 323f
000000e0: 72a9 d83f 5a93 c93e ce66 673f 64be de3f
000000f0: fd40 e43e a53d 283f 3cd8 7b3f 09ba 0e3f
1.1455848 0.8494683 1.0527775 0.85352683 1.1349068 1.1215771 0.94602364 1.0457443
0.8953633 0.7454805 0.4841961 0.5458368 1.1222134 0.9793763 0.94149363 1.0142853
0.7660222 0.59985405 1.0960867 1.1151835 0.7015682 0.82439834 0.7954879 0.49562034
0.5863864 0.9416135 0.72287774 0.9679344 1.1239753 1.2661572 0.90391237 1.3632034
0.6045189 0.9835569 0.54678947 0.72389615 1.0697441 2.0023928 0.6291641 0.9039124
1.1081864 0.9483796 0.75834274 0.49843574 0.41069973 1.0053566 1.5008346 0.9275455
0.86128527 1.0389751 1.3752121 0.81211793 0.999168 1.1705539 2.1578925 0.69726634
1.6926711 0.39370233 0.9039124 1.7401853 0.44580832 0.6571906 0.9837682 0.5575262

first_eye.6.bias f4 [64]
00000000: 210b 0b3e 3eff 5bbc 7475 60be a2be b6bc
00000010: f051 c6bd 76f7 143e d712 d0bd 5074 13be
00000020: 8110 313f b732 4e3d 417a 2f3d 320b 463e
00000030: 5562 553e 60b1 14be 5659 54be d481 8dbe
00000040: af59 98bc 6af8 a7be 0027 263d e6b9 10bf
00000050: 8045 0e3d 8e92 b53e 1ef7 07bd 8df7 42be
00000060: 1b9b ed3d 8fc2 e8be fb9f 743e 002f 343b
00000070: f3c8 db3d 9586 2a3e 4508 27be 8d9a a5be
00000080: 0276 c13b 6274 0fbf c2c4 47be 88c2 5a3c
00000090: a317 efbd 32dc 043f db7b 3bbc 27ad 8b3d
000000a0: b380 1d3e 0de0 0c3e e50f f13d 9c7f 7cbc
000000b0: 5de5 52bd 9b41 47be dbc5 fd3d a825 83be
000000c0: f929 d7bc 1cd6 69be 2d9e 5c3d a23d 98be
000000d0: 0a6d b1bd 5f21 43be f729 543f 16ec 16be
000000e0: a343 90bd 2dcf 06be b750 513d 81be 993e
000000f0: 6147 afbd bcc2 88be a378 ccbd 0af9 b03e
0.13578464 -0.013427554 -0.21919805 -0.022307698 -0.09683597 0.14547524 -0.101598434 -0.14399838
0.6916581 0.050341334 0.0428412 0.19340208 0.20838292 -0.14520788 -0.20737204 -0.27638113
-0.018597452 -0.32806712 0.040564537 -0.5653366 0.03473425 0.35463375 -0.033194654 -0.19039746
0.1160185 -0.45460936 0.23889153 0.0027493834 0.107316874 0.16652901 -0.16311748 -0.32344475
0.00590396 -0.5603696 -0.19508651 0.013352044 -0.1167443 0.5189849 -0.011443104 0.068201356
0.15381126 0.13757344 0.1177061 -0.015411284 -0.05148827 -0.1945862 0.123912536 -0.25614667
-0.026265131 -0.22835582 0.053861786 -0.29734522 -0.08663376 -0.19055699 0.82876533 -0.14738497
-0.07044151 -0.13164969 0.051102366 0.30028155 -0.08558536 -0.2671107 -0.09983947 0.34565002

first_eye.6.running_mean f4 [64]
00000000: 0400 0000 ebfe 603e 0400 0000 87e9 2e41
00000010: f4c7 8f40 0400 0000 999e 5941 a26d 9a3f
00000020: da12 7140 d3d7 ae40 4b12 b341 d903 5340
00000030: ccbb f140 66ee 0e3f 8ded 0541 7eff 0b3e
00000040: 36a8 0041 9b4f 5341 0400 0000 2a82 ea3f
00000050: 114b c13f 6e8b de3f 9c60 3141 9a3b 7e41
00000060: 2759 0a41 2017 7841 8675 2740 ea0a 9541
00000070: 0400 0000 99aa a940 0400 0000 7d91 ac3f
00000080: 5c6f 9341 6817 a440 1bcb 3d41 5852 9841
00000090: 471e df40 0c18 1c40 5e32 9f41 0400 0000
000000a0: 0400 0000 0400 0000 809d 7641 63a2 5041
000000b0: 4fed be41 0400 0000 d856 f43e 99d8 1b41
000000c0: 0400 0000 695b 1340 f0e4 2040 c438 1e41
000000d0: af11 4841 c00c 6c3f 71aa 1e40 c422 7f41
000000e0: 4ad3 0241 b43d 8441 0400 0000 4533 c63f
000000f0: e0d8 9041 6699 de40 cd52 9341 cf49 4540
6e-45 0.21972243 6e-45 10.9320135 4.4931583 6e-45 13.60122 1.2064707
3.7667756 5.4638457 22.383932 3.2971098 7.5541744 0.5583252 8.370496 0.13671681
8.041067 13.206935 6e-45 1.8320973 1.5101033 1.73863 11.086086 15.889551
8.646766 15.505646 2.616548 18.63033 6e-45 5.302075 6e-45 1.34819
18.429375 5.127857 11.862086 19.040207 6.972446 2.4389677 19.899593 6e-45
6e-45 6e-45 15.413452 13.039645 23.865873 6e-45 0.47722507 9.74038
6e-45 2.3024542 2.5139732 9.888859 12.504317 0.92206955 2.479153 15.945988
8.176584 16.530128 6e-45 1.5484396 18.105896 6.9562254 18.41543 3.08263

first_eye.6.running_var f4 [64]
00000000: 0400 0000 baeb 993f 0400 0000 337b c442
00000010: 8d7d 0d42 0400 0000 3eab 6a42 dbdb ff40
00000020: 46be 1542 c87a 5542 4e7b f942 a31f c641
00000030: 1741 1b42 a20b 4a40 9b34 f042 baa1 3e3f
00000040: 8f33 f742 6fca 7e42 0400 0000 3e4c 0d41
00000050: 87f5 0c41 c0d2 5a41 e115 7a42 a07c 1743
00000060: c73b db42 e04e 0843 73fa 7741 cd4e d142
00000070: 0400 0000 0360 ca41 0400 0000 c848 0d41
00000080: b98c 8642 ac24 6042 ecf5 4d43 d65f 3a43
00000090: 20cd 0842 34d2 af41 facb 6043 0400 0000
000000a0: 0400 0000 0400 0000 0f33 b742 dc12 e842
000000b0: afe8 0a43 0400 0000 6ec2 1e40 9bc5 cc42
000000c0: 0400 0000 6d3e 7d41 1e61 ac41 508f 4742
000000d0: 5b12 8c42 22b6 a040 9aaa 6241 1f85 3643
000000e0: a200 6f42 d650 a642 0400 0000 a2c8 5241
000000f0: 1ec6 0743 3c6b 1442 053e 8342 e1fb ba41
6e-45 1.2025063 6e-45 98.24062 35.37261 6e-45 58.66723 7.995588
37.435814 53.369904 124.74083 24.765448 38.813564 3.15696 120.102745 0.74465525
123.6007 63.69769 6e-45 8.831114 8.809943 13.676453 62.521366 151.48682
109.61675 136.3081 15.498645 104.65391 6e-45 25.29688 6e-45 8.830269
67.27485 56.035812 205.96063 186.37436 34.200317 21.977638 224.79678 6e-45
6e-45 6e-45 91.599724 116.036835 138.90892 6e-45 2.480617 102.38595
6e-45 15.827741 21.54742 49.889954 70.03585 5.022233 14.166651 182.52
59.750618 83.15788 6e-45 13.173983 135.7739 37.10472 65.62113 23.372988

first_eye.8.weight f4 [128, 64, 3, 3]
00000000: a9e4 01be d4eb f1bd 17b1 47bd 22c4 c9bd
00000010: 50a3 c3bd c1d9 19be a54f af3d 884a f53d
00000020: da53 dd3d 7433 ae3d 5628 e43d d537 abbd
00000030: 000c c7bd f22f 0e3e 8511 19bd 8258 29bd
00000040: 8d55 e2bd 69cd 1dbe 2025 fabd 631e 55bd
00000050: c691 a53d b3dc 70bd 6163 1dbe d56e 21be
00000060: 1338 97bd c84d c7bd 0179 edbd c3e1 08be
00000070: 14dc a2bd 0204 003e 9050 3b3d c38f efbd
00000080: 85e4 66be 996d 113e 0004 e1bc 21c6 fbbd
00000090: 5435 283e 200e bc3d 7c15 353e 10a8 91bd
000000a0: 6b6d 0bbe ecb9 f7bd f638 aebe c155 823d
000000b0: cde8 08be 7eb0 9ebd 548f 02be 3ee8 f93c
000000c0: 7388 03be f13f 24bd 7f62 a8bd 66d4 b5bd
000000d0: fbe1 2dbe 2a8c 40be 859e c4bd 0a0c 093b
000000e0: 12d8 5a3e f691 9abd 5337 48bd eadc 593e
000000f0: a0a1 fbbd a552 a7bc 565d 70bd f8c7 51be
00000100: 8f49 22be f925 9cbd a280 cdbd 1b65 153e
00000110: 97ae e13d 9440 3b3e cc70 263e 3e5f 823d
00000120: 9978 60bc a863 62bd b6d1 5e3e de89 63bd
00000130: 0be1 9dbd 6d68 4bbb 7432 3ebd 0032 db3d
00000140: 2c98 a6bd 093c 69bd 75d1 f7bd fcdd 743c
00000150: b524 2bbe 4de2 03be 594a 1cbe de9f efbd
00000160: 7c27 d2bd 462b 34be a0d2 103e a57c abbd
00000170: a349 403e e37f 0b3d 9b9c ba3d a1c6 1b3e
00000180: 3936 ac3d d229 d53d 7319 f83d 8a52 013e
00000190: 227c 173d 9c45 96bd 247e 8bbd f782 0abe
000001a0: e9a3 ebbd 9cc5 12be 3b13 20be b8dc 8fbd
000001b0: b282 bbbd d006 47bb bc20 afbd bfec 0bbe
000001c0: 1890 28be 7413 7cbe b45a d43d 0a46 dc3d
000001d0: e903 c23d e342 56bd 1392 383e 5847 d93d
000001e0: 93c4 0ebe 5463 a9bd 8c16 0c3e 2dcf eabd
000001f0: 4b21 92bd 305e 71bd 2a2f bcbd 673b afbd
00000200: 810f 70bd 2ba5 0cbe 6d77 f5bd 83a1 d4bd
00000210: 90dd ce3d 94fa 973d 63a1 aa3d 2ff9 08bd
00000220: 0f55 7ebd 5ad3 1dbe 2a47 dabd 8d21 24be
00000230: 2e0a 6b3e 6dfb e4bc e8d6 dabd 97da 9cbc
00000240: 2cbe 7bbd 5168 e2bd c287 a4bd 6acc 533e
00000250: 0545 823e a9a1 2b3e f880 bd3d b780 053e
00000260: 2f0e e93d 499d d0bd eb02 073e 767e ae3e
00000270: c07b bfbd 3472 663c 86b1 773e 67f4 bf3d
00000280: 8107 0e3e ebb5 4e3e 2e3f 863d 1f14 a93d
00000290: 2495 cd3d 6ad4 0d3e 12bd 6dbd df11 d73d
000002a0: 502b 02be 71c0 babd 83f2 89bd a83c babd
000002b0: 5dce babe 7258 1c3d 240a d2bd 1953 f9bd
000002c0: 6e5c 00be 37cd f2bc b6a0 0bbd bcd8 a3bd
000002d0: 49c5 e93c f444 94bd 7497 d2bc 89a5 653b
000002e0: 0686 fabd e6e2 c2bd 593e ce3b 4cd3 d7bb
000002f0: 3a64 71bd 0e36 c5bd 3f34 d0bc d48a 89bd
00000300: 5ea6 0e3e a59b 813d d5b7 55bd 0b5f 933d
00000310: b6c3 fd3d 505b 473e ec98 173d 14d1 dd3d
00000320: 69dc 2b3e 5b1a f6bd 1b69 cfbd 08ab 74bd
00000330: cafe e1bd 27e6 debc a55e f2bd e795 7fbd
00000340: 4ee2 f5bd 9a3b 20bd c7de 88bd cf14 20be
00000350: cc49 11bd a8dc f73d e46e afbd aece b4bc
00000360: e13f 06be 4e71 b9bd 22b8 04bc 3a6f d63d
00000370: edaa 033d 1e63 6d3c 5290 e53c e439 28bd
00000380: a2de 603d 9878 a5bd 2c82 c3bd d770 793c
00000390: 1f89 b7bd c2ed 27be 21b2 16bd 7d05 5d3d
000003a0: 63f4 133e c088 0d3e 3f2e aa3d b0f6 983d
000003b0: c1fb cd3d 930c 0cbe f9f5 04be a59a 11be
000003c0: 74d7 8ebd b7d1 a5bd de3b bbbd ba98 133e
000003d0: 9ec1 c13d f696 fa3d 5b3b 8fbd 5feb a5bd
000003e0: 1f2a 833e 3a76 f0bd 2604 17bd 8429 af3d
000003f0: 369f c3bd d23e b6bd c553 1e3e e52a 1fbd
-0.12684883 -0.11812559 -0.04875287 -0.098518625 -0.09552634 -0.15024473 0.08560113 0.11977106
0.10807009 0.08505908 0.11140506 -0.083602585 -0.09719086 0.13885477 -0.037370224 -0.041344173
-0.11051474 -0.15410389 -0.12214112 -0.052030932 0.08084445 -0.058804225 -0.15369941 -0.15764935
-0.07383742 -0.097316325 -0.11595345 -0.13367371 -0.07952133 0.12501529 0.045731127 -0.11697342
-0.22548111 0.14201964 -0.027467728 -0.122936495 0.16426593 0.09182382 0.17683977 -0.071121335
-0.13615958 -0.12096009 -0.34027833 0.063640125 -0.13370056 -0.07748507 -0.12749988 0.03050625
-0.1284502 -0.04010004 -0.08221912 -0.088784024 -0.16980736 -0.18803468 -0.09600548 0.0020911717
0.21371487 -0.07547371 -0.048880886 0.21275678 -0.12286687 -0.02042515 -0.058682762 -0.20486438
-0.15848373 -0.0762443 -0.100343004 0.1458935 0.110196285 0.18286353 0.16253966 0.06365822
-0.013700628 -0.05527082 0.21759686 -0.055551402 -0.07708939 -0.0031037584 -0.046434835 0.10702896
-0.08134493 -0.05694202 -0.12100498 0.014945503 -0.16713221 -0.12879296 -0.15262736 -0.11700414
-0.10261437 -0.17594633 0.14142847 -0.083733834 0.1877809 0.03405751 0.091119014 0.1521249
0.0840878 0.10408367 0.12114229 0.12629142 0.036983617 -0.07337496 -0.06811169 -0.13526522
-0.11505873 -0.14333194 -0.15632336 -0.07024521 -0.091557875 -0.003036905 -0.085511655 -0.1366453
-0.16461217 -0.24616796 0.10368863 0.107555464 0.09473402 -0.052309882 0.18024473 0.10609311
-0.13942175 -0.082708985 0.13680476 -0.11465297 -0.071352564 -0.058927715 -0.09188683 -0.08556252
-0.058608536 -0.13734882 -0.11985669 -0.103823684 0.101008534 0.07420841 0.08331563 -0.033440765
-0.062092837 -0.15412655 -0.10658105 -0.16028424 0.22953102 -0.02795192 -0.10685521 -0.0191472
-0.06146066 -0.11055053 -0.08033706 0.20683447 0.25443283 0.16760887 0.092531145 0.13037382
0.113796584 -0.1018625 0.13184707 0.34080857 -0.09349775 0.014065314 0.24188814 0.09372788
0.1387005 0.20186584 0.06555019 0.08255791 0.10038212 0.13850561 -0.05804164 0.105014555
-0.12711835 -0.091187365 -0.067357086 -0.090936005 -0.36485568 0.038170286 -0.102558404 -0.12174053
-0.12535259 -0.02963887 -0.034088813 -0.08000323 0.028536456 -0.07239714 -0.025706984 0.0035041294
-0.12232594 -0.09515934 0.0062940535 -0.006586468 -0.058933474 -0.09629451 -0.025415538 -0.067159325
0.13930652 0.06328515 -0.05217727 0.071958624 0.123908445 0.19468427 0.037011072 0.10830894
0.16783299 -0.12016746 -0.10127469 -0.05973342 -0.11034925 -0.027209355 -0.11834458 -0.062398817
-0.12006055 -0.03911934 -0.066831164 -0.15632938 -0.03547077 0.12102634 -0.085660726 -0.022071209
-0.13110305 -0.09054814 -0.008100541 0.104704335 0.03214543 0.014488963 0.028022919 -0.041070834
0.05489982 -0.08079642 -0.09546313 0.015224657 -0.08961701 -0.16399291 -0.03679097 0.053960312
0.14448695 0.13821697 0.08309602 0.07468927 0.10057784 -0.13676672 -0.12984456 -0.14219148
-0.06974688 -0.080966406 -0.09142278 0.1441373 0.09460758 0.12235825 -0.06993743 -0.08101534
0.25618073 -0.117413 -0.03686919 0.0855284 -0.095518515 -0.08898701 0.15461643 -0.038859267

first_eye.8.bias f4 [128]
00000000: 07ae adbd cd8c a339 47c8 d43b 15a2 66bd
00000010: c78a aa3d 7542 b63d 3a0e dc3d c3cf 1cbd
00000020: 8114 a0bd 22d4 9b3d 035b 9dbd 9aad a1bd
00000030: 093a debd 8177 ea3d f977 50bd 3b9d ba3d
00000040: 70e8 8bbd 3346 b53d 0e36 fd3c 6809 4e3d
00000050: 669b b23d 3e81 bd3c f5b8 38bd 513b cd3a
00000060: b776 d93d 3d3b ce3d a2d5 39bc f89e 7cbd
00000070: 532e 653c acdc 873c bc31 b5bd 6c18 d13c
00000080: c226 9fbd 2cbb a7bd 0e23 7d3d 3dce d1bd
00000090: af59 993d 2e8e b1bd 07bb abbd 8da9 3dbb
000000a0: 7ee8 a2bd ce62 1f3d 80a9 5e3d 6feb 88bd
000000b0: 6ad0 a5bd 365e 8abd 2317 8b3b 6171 913d
000000c0: 7a16 8a3b afe7 cf3d 9d1c ac3d d33e 823d
000000d0: 6ab8 2d3d a58d cabc a4ea 0cb9 96ac 013e
000000e0: fbee c53d 4758 a13d 6730 d53d 009b bbbd
000000f0: 139f b43d fa3f b23d 0409 f53d 8cec abbd
00000100: 48d9 ac3d 4bcb 973d ad85 7dbd e75c b3bd
00000110: 0696 7abd 46c0 b5bd cb9f 643d d08d ad3d
00000120: 00d0 58bd d8ac 063e a305 8a3c f955 9f3d
00000130: f1c0 39bd 5e7f ed3c 735e 23bd 4aa4 c53d
00000140: 7374 59bc 2af2 7bbd ad06 423d ec00 cd3d
00000150: 9d19 c43d 910d bf3d c5f3 5c3d ad36 d93d
00000160: 759b 143b ae7b 9e3d 2bf4 a5bd e21c 27bc
00000170: 7dea 52bd 4ce5 cbbd d26c 9ebd 7c64 ee3c
00000180: 583e a23d 23a4 5a3d 2217 6c3d 1db9 6ebd
00000190: ad56 7cbd c460 85bd 1894 373d d519 e03d
000001a0: 6d81 8f3d 996e f93d 1428 bebd 212c a8bd
000001b0: 3f2e 8f3d 11d6 95bd 661f c83d d6c5 cd3d
000001c0: a8c7 b83d 2c02 99bd c9c0 983d 3c6a 87bd
000001d0: 63cc afbd 1477 f53d b5f3 96bd 1a9b 3f3d
000001e0: 6e3b 8abd 4801 9cbd 77c3 95bd 1858 a73d
000001f0: 81d3 c43d 0f96 163d 92bf a6bd 92b1 d73d
-0.08480459 0.00031194687 0.0064936015 -0.056306917 0.08327251 0.088993944 0.10744901 -0.038284075
-0.07816411 0.076088205 -0.07683375 -0.0789444 -0.10850913 0.11448575 -0.050895665 0.091120206
-0.06831443 0.0885128 0.030909564 0.05030194 0.08721046 0.023132917 -0.045098264 0.0015657936
0.10618346 0.100698926 -0.011342438 -0.061675042 0.013988095 0.016584717 -0.08847377 0.02552434
-0.07771064 -0.08189997 0.06180101 -0.10244415 0.07487809 -0.08669697 -0.08385282 -0.0028940171
-0.079545006 0.038912587 0.054360867 -0.066855304 -0.080963925 -0.067562506 0.0042447015 0.071017034
0.004214105 0.10151612 0.08403895 0.06359639 0.0424122 -0.024725745 -0.00013438851 0.12663493
0.096647225 0.07878166 0.10409623 -0.09160423 0.088194035 0.08703609 0.1196461 -0.08394727
0.084398806 0.07411822 -0.06189506 -0.08757954 -0.06117823 -0.08874564 0.055816453 0.08474314
-0.05293274 0.13151872 0.01684839 0.0778007 -0.04535002 0.028991397 -0.039884996 0.09650476
-0.013272393 -0.061510243 0.047369648 0.100099415 0.09575198 0.093287595 0.053943414 0.10606132
0.0022675667 0.07738434 -0.08103212 -0.010199757 -0.051493157 -0.09955844 -0.077355996 0.029100649
0.079220474 0.05337919 0.05763925 -0.058282007 -0.061606098 -0.06512597 0.044818968 0.10942427
0.07007108 0.12179298 -0.09284988 -0.08211542 0.069912426 -0.073162206 0.09771614 0.100475
0.090224564 -0.074711174 0.07458646 -0.066120595 -0.085839055 0.11985603 -0.07370702 0.046778776
-0.067496166 -0.07617432 -0.073126726 0.081710994 0.09610654 0.0367642 -0.08142008 0.10531916

first_eye.9.weight f4 [128]
00000000: 7527 5f3f 3a6b 1f3f abbd 283f 53b3 523f
00000010: d47f b63f 0a68 653f f612 a33f 033d 4d3f
00000020: 4792 293f 4cfe 593f cc7b b33f 2361 a63f
00000030: b4cf 253f 084b 903f 352d 003f aaf9 513f
00000040: 4120 773f 0aad 463f 167b 4c3f b340 0d3f
00000050: 7075 613f ed37 af3f e7d3 3c3f d655 1c40
00000060: 4d2d 593f d3d1 4d3f ca79 3b3f 4e34 413f
00000070: 3cf4 903f 80fc 3a3f 052f 8b3f c7d1 373f
00000080: ac40 4c3f bfc9 1b3f 9091 3b3f 1a5d 4a3f
00000090: 43bd 493f 549a 453f 87f1 453f 52c5 4b3f
000000a0: ce19 a13f bb96 3a3f f844 193f 4730 ea3e
000000b0: f8be 733f 510b 9b3f 4d7d 443f 8fa4 333f
000000c0: baf0 4e3f ec7e 8b3f d77d 4f3f 2c8a 053f
000000d0: 9832 ea3e acf8 773f 3951 913f fe78 503f
000000e0: ea06 463f 1855 c73f 0c12 233f 83a7 833f
000000f0: 3d94 793f e74b 943f d840 aa3f 8f82 713f
00000100: 6e26 983f 3edb 493f 1360 3c3f e2b0 513f
00000110: aec6 a33f 6c9c 4d3f 9537 a53f 24ed 6b3f
00000120: b3b1 853f 794c 583f 5509 633f 0aaa 993f
00000130: dd7d 993f 17f9 543f 6c17 9f3f 6453 943f
00000140: d932 3c3f b6e2 6d3f 0f38 153f 0642 5c3f
00000150: 3c0f 153f 4425 653f b18e 523f cf09 4f3f
00000160: 4478 4d3f c427 613f fbd3 233f a5f9 a33f
00000170: fdd0 123f 2a79 853f ca0a 323f f9a1 a03f
00000180: d02e 513f 2be5 be3e 25d5 9b3f 2d15 4a3f
00000190: da5d 983f a94b 6d3f 8557 963f 11f5 af3f
000001a0: 9c12 5b3f e124 6b3f 643e be3f dfc9 523f
000001b0: 3bc2 133f 8723 283f cf2a ee3f 05c2 133f
000001c0: 1ed4 0a3f 9c29 b03f 6a65 5f3f 3bf0 3e3f
000001d0: 0b56 673f 5052 4e3f f0ac 513f 759d 1040
000001e0: c680 f63f 7b09 663f 9836 c33f 28b1 393f
000001f0: a5ce 363f 642e 5e3f 79d0 6e3f fb3b 823f
0.8716958 0.6227299 0.6591441 0.8230488 1.425776 0.89611876 1.2740161 0.8017122
0.66238827 0.8515365 1.4022155 1.2998394 0.64770055 1.1272898 0.5006898 0.8202158
0.9653359 0.77607787 0.79875314 0.5517685 0.8806982 1.3688942 0.7376084 2.442739
0.8483475 0.8039829 0.7323271 0.75470436 1.1324534 0.73041534 1.0873724 0.7180447
0.7978618 0.60854715 0.73268986 0.7904831 0.78804415 0.7718861 0.77321666 0.7959796
1.2586 0.72886246 0.5987086 0.45739958 0.9521327 1.2112828 0.76753694 0.7017297
0.8083607 1.0898108 0.8105139 0.5216396 0.45741725 0.9686382 1.1352912 0.8143462
0.773543 1.5572844 0.6369941 1.0285496 0.9749182 1.1585664 1.3301039 0.9433984
1.1886728 0.7885016 0.735841 0.81910527 1.2795007 0.80316806 1.2907587 0.9215872
1.0444854 0.8449169 0.88686115 1.2005017 1.1991535 0.8319258 1.2429023 1.1587949
0.7351509 0.9292406 0.58288664 0.86038244 0.5822637 0.8950999 0.8224898 0.8087434
0.80261636 0.879513 0.6399533 1.281056 0.5735014 1.0427601 0.6954771 1.254943
0.81712055 0.37284216 1.2174422 0.7893856 1.1903641 0.92693573 1.1745459 1.3746663
0.8557527 0.9185315 1.486279 0.8233928 0.5771825 0.6567921 1.8606814 0.57717925
0.54229915 1.3762698 0.8726412 0.7458531 0.90365666 0.8059435 0.81904507 2.2596104
1.9258049 0.89858216 1.5251036 0.72535944 0.71409065 0.86789536 0.93286854 1.0174555

first_eye.9.bias f4 [128]
00000000: 8478 cabe f812 e1be a878 c53c 31ac 36bf
00000010: a1c2 28bf 6f00 2fbf 1546 83be c5bb 0abf
00000020: 60b3 29bf 83d0 d3be c167 bcbd 5f89 ad3e
00000030: 06e2 83be 8dd7 70bd 1894 17be b191 10bd
00000040: 8c49 10bf e1c3 88be 7a55 26be 6a0e c3be
00000050: 2326 89bd 89e3 a03c 2396 97be 1043 583f
00000060: 4411 f2be 849d 92be b04b b2be fe85 efbd
00000070: cc62 83bd 5925 aebe 5734 e3bb 6124 55bd
00000080: fbb8 c4be 8533 cfbe be08 52be b487 c5be
00000090: 8e16 6dbe c1c8 7bbe daf6 15bf 7057 cbbe
000000a0: e911 77be 30ef 07bf b3f8 d4be 91fe ccbe
000000b0: 652a a4be 053d cc3e e270 bebe b965 07be
000000c0: dddb 16be 7499 38be 4c37 dabe 2bd5 5abe
000000d0: 33c0 28be d0ef e4be 47dd 0dbf 84b2 ccbd
000000e0: 0351 efbe 8572 9f3e efea b8bd bdc3 af3d
000000f0: 2dee 2cbe 8159 a83d 9e54 b5be 537b 0ebe
00000100: 2c66 e73d b0a5 06bf 9e62 e2be f646 a8be
00000110: 8f0a 0e3d e387 8bbe db5a acbe a193 92be
00000120: ec14 dfbe f0a4 afbe 6281 82be ce7f abbd
00000130: cbf1 b7be acdb 33bd c16b ca3d 7955 5bbe
00000140: 1f91 bdbd ffbc 7ebf 5262 91be 736f 98be
00000150: 5aac 1dbc 8693 e23d 5ac8 dfbe 2d87 5cbe
00000160: fe17 dcbe dff1 c6be c911 9ebe 4da6 c4bd
00000170: 99ff a0be 3dad 50be eb04 cbbe 6938 4ebd
00000180: ea54 91bc e292 91be b083 23be 3034 51be
00000190: a65b d5be 37de 95be 8c26 35be cf2b b3bd
000001a0: bbf6 14bf b230 f3be c301 2abe 5a18 68bf
000001b0: 9f24 b3be 9775 c5be 06b5 d93e 9bdc 54be
000001c0: 6660 dabe 585a 44bd 8582 54be 1dbe ffbd
000001d0: 258d ccbd 3588 7b3d 042e 073e 48df bcbe
000001e0: e53f df3e 10fe 1bbe 8782 513e 1c4f 82be
000001f0: 73c2 24bf b81a 28bd 194f aebe 13d6 a4be
-0.3954507 -0.43959785 0.024105385 -0.71356493 -0.6592198 -0.68360037 -0.25639406 -0.54192764
-0.6628933 -0.4137002 -0.09199477 0.33893868 -0.2575838 -0.058799315 -0.14802587 -0.035295192
-0.56362224 -0.26711944 -0.16243544 -0.38096935 -0.06696727 0.019639747 -0.29606733 0.8447733
-0.47278798 -0.286358 -0.3482337 -0.11695479 -0.064153284 -0.3401287 -0.0069337296 -0.052036647
-0.3842238 -0.40468994 -0.20511147 -0.38580096 -0.23153135 -0.245883 -0.5857979 -0.39715147
-0.24127926 -0.53099346 -0.41595992 -0.4003797 -0.32063594 0.39890304 -0.37195498 -0.13222398
-0.14732309 -0.18027288 -0.42620313 -0.2137038 -0.16479568 -0.44714212 -0.5541577 -0.09994987
-0.46741495 0.3114206 -0.09029185 0.08582256 -0.16887732 0.082201965 -0.3541612 -0.13914232
0.112987846 -0.5259657 -0.44215864 -0.3286664 0.03467804 -0.2725211 -0.33663067 -0.28628257
-0.4357065 -0.34305525 -0.25489336 -0.08373986 -0.3592666 -0.043910667 0.09883834 -0.21419324
-0.09256195 -0.99507135 -0.28395325 -0.2977253 -0.009623611 0.11063294 -0.43707544 -0.2153594
-0.42987055 -0.38856408 -0.30872944 -0.09602032 -0.31445006 -0.20378585 -0.3965219 -0.050346766
-0.017740685 -0.28432375 -0.15968204 -0.20430064 -0.41671485 -0.292711 -0.17690486 -0.0874859
-0.5818898 -0.4749809 -0.16602235 -0.9066216 -0.34988877 -0.38566276 0.42520922 -0.2078728
-0.4265167 -0.04793772 -0.20752914 -0.12487433 -0.09987859 0.061409194 0.13201147 -0.368891
0.43603435 -0.15233636 0.20459948 -0.2545098 -0.64359206 -0.041041106 -0.34044722 -0.32194576

first_eye.9.running_mean f4 [128]
00000000: 3b5f f2bf 3c8e 1d3f bb63 1dc0 9b13 5abf
00000010: ba4f 8dbe 8bda 25bf e8dc 05c0 05e6 833d
00000020: 4bf3 e4be 268c bc3e 960c 9dbc 8f08 a0be
00000030: a3a7 da3c a18c 2cc0 0862 c5be 0f07 16c0
00000040: 7dfa 1fc0 b314 2b3f e699 9abf ea3f 223e
00000050: ee67 9dbe a207 40c0 3977 253f 31e4 16c0
00000060: ad30 ac3e 9790 a83e bdf7 a8bf 3550 b0bf
00000070: ad4a eabf a74d e5bd f88c 0d3e c105 88be
00000080: c13f 503e 9dad cebe 6102 a63d ac60 863e
00000090: 85d5 38bf eb70 0dc0 def2 293e e9c3 a63f
000000a0: fac2 8f3f c7fd f73d 9847 703e f800 35be
000000b0: 203f 8c3f e1b7 3840 7b49 eabf 5bf9 6a3e
000000c0: 0944 aebf 6878 3ec0 4a09 46bf 0ddc 9abe
000000d0: 9314 61be 1ad8 4540 5aab b03f 47d6 343d
000000e0: 8b2d 1a3c 2987 293f 1cbe d0bf 53f8 00bf
000000f0: 775d fbbf 89c5 d7bf 1352 fb3f 0957 f6bf
00000100: 7e49 08be 4934 4dbe b6cd 43bf 3954 2ac0
00000110: 1643 65c0 e577 103f d704 ac3f 8999 5ac0
00000120: 8bc9 38bf 5bd1 983f 22ca 15bf 24cc 383e
00000130: 074e 003e 4749 45bf d56e febc f1c9 47be
00000140: fd81 a33f 9b9c 133d a393 743f 0a8c b63d
00000150: 31b6 4dbe fc09 8ebf 676d 7c3f 4f47 8b3e
00000160: 4f9c 6ebe 5029 5bbe fea9 18be c6ec 89bf
00000170: 749c edbd 7b33 893e 750f 853f a487 36c0
00000180: 7357 61bf 8170 5cbf 0559 dcbf b47a a8bf
00000190: 3497 2b3d 11eb f7bf 2039 be3f 10f7 24c0
000001a0: 6b8c 20bd ecc0 53bf e53c 61bf c4d3 f03e
000001b0: 0670 75bf a64c 88be 6dd5 8cbf 1bb4 6fbf
000001c0: 91bb 99be 8c96 b43e 0dd0 eabe 6f5d 3cbf
000001d0: 55f9 19bf 9505 efbd fd59 8ebe f02b 77be
000001e0: 40e5 adc0 ca5a a6bf 1e35 1240 10fc 843f
000001f0: e62c 9f3f 14a2 cebf eb66 a3be 74bd 55bf
-1.8935312 0.6154516 -2.459212 -0.85186166 -0.2759989 -0.64786595 -2.091608 0.06440357
-0.44716868 0.36825675 -0.01917104 -0.3125653 0.026691264 -2.6960833 -0.38551354 -2.3441808
-2.4996636 0.6682846 -1.2078216 0.15844694 -0.30743355 -3.0004659 0.64635044 -2.3576777
0.33630887 0.32922813 -1.3200604 -1.3774477 -1.8304039 -0.11196452 0.13823307 -0.2656689
0.2033682 -0.4036683 0.081059225 0.2624563 -0.72200805 -2.210017 0.16596553 1.3028537
1.1231377 0.12108951 0.23464811 -0.17676151 1.0956764 2.886223 -1.8303674 0.22946684
-1.3614513 -2.976099 -0.77357924 -0.3024601 -0.21980505 3.0913148 1.3802292 0.044149663
0.009410272 0.66221863 -1.6308017 -0.5037891 -1.9637898 -1.6857158 1.9634422 -1.9245311
-0.13309285 -0.20039476 -0.76485765 -2.6613905 -3.5822196 0.56432945 1.3438977 -3.415621
-0.7218253 1.193889 -0.58511555 0.18046623 0.12529765 -0.7706494 -0.031058708 -0.19510628
1.2774044 0.036038022 0.95537776 0.08913429 -0.20089032 -1.1096797 0.98604435 0.27202842
-0.23301814 -0.21402478 -0.14908597 -1.0775383 -0.11602107 0.2679709 1.0395342 -2.8520288
-0.8802406 -0.8610917 -1.7214667 -1.3162446 0.041892245 -1.9368612 1.4861183 -2.5775795
-0.039196413 -0.8271625 -0.8798354 0.47036564 -0.9587406 -0.26620978 -1.1002632 -0.93634194
-0.30025914 0.35271108 -0.45861855 -0.7358007 -0.60146075 -0.116709866 -0.2780303 -0.24137855
-5.4342346 -1.2996457 2.284492 1.0389423 1.2435577 -1.6143212 -0.31914458 -0.8349221

first_eye.9.running_var f4 [128]
00000000: 1123 6641 e0ac 1142 298c 9942 2288 cb41
00000010: c9ac 0742 be38 2f42 f14a 3a42 25e8 0c42
00000020: dc0b 4542 d9b7 9942 1b98 8c41 0bdd ff41
00000030: d9df a642 b1af 0542 8898 c142 e162 a142
00000040: 3a1f 6642 a874 8b42 36ae 9d41 c9b6 8042
00000050: cb42 d042 121b 3942 058b 8642 1a2c 7f42
00000060: f6c4 0f42 61f9 3c42 b9fb 0e42 99f0 9c42
00000070: 66e6 b641 04f5 3642 b1f8 7241 2e6c 7242
00000080: 3c66 ba41 f506 8342 e377 1d42 780b a942
00000090: 3567 0342 7646 1d42 daec 9a42 e3ec a241
000000a0: 4387 0642 1669 8242 9d06 5a41 5742 ca42
000000b0: dd52 f041 e2ed b242 99dd 5242 28cd 7b42
000000c0: 89a7 f041 015a fe41 0b80 7d42 93f7 a842
000000d0: e26f b642 ae37 c041 6661 0c42 d74f 8542
000000e0: adb0 6342 8e5a 1f42 34ff 0143 15ea 2b42
000000f0: 0e46 0242 49ce ed41 a895 da41 4bb0 2a42
00000100: b0a2 cc41 14ee 0242 9882 6642 eb59 1142
00000110: b851 3842 baf1 1442 da79 2e42 085c 9841
00000120: 7524 de41 a83f 9e41 7c4b 7b42 038e db41
00000130: 1aa6 5a41 2950 1542 e983 0642 c178 8541
00000140: d5b0 8642 baa6 4842 c2a2 7c42 f961 9941
00000150: 32b8 a842 7194 7042 9733 b242 acba 0d42
00000160: 9d94 1142 3574 a942 8725 2541 2143 2642
00000170: e071 2342 43d9 ee41 341f 9d41 ac53 0242
00000180: 512e 7242 e901 4042 ca66 0542 f579 c142
00000190: d532 a741 3782 8142 0c11 1542 c30d d041
000001a0: 3aa1 4642 a4c5 ab42 d16b d542 2b35 2042
000001b0: 40e0 4242 b401 e442 60c8 1542 db2d cb42
000001c0: d6a6 6e42 d39d 2b42 75ca 9742 538c 5f42
000001d0: 34b5 0642 0ce4 c541 9a34 1043 5e46 7e42
000001e0: 05d5 9142 5c84 0042 d67e c841 42fe 5941
000001f0: 6223 1d42 c8ce a442 38aa e241 e491 d142
14.383561 36.418823 76.77375 25.441471 33.918736 43.805412 46.573185 35.226704
49.26158 76.85908 17.57427 31.982931 83.4372 33.421574 96.79791 80.69312
57.530495 69.727844 19.710064 64.357 104.130455 46.276436 67.27152 63.793068
35.942345 47.243534 35.745823 78.46992 22.8625 45.739273 15.185716 60.605644
23.29992 65.51359 39.367077 84.5224 32.85079 39.31881 77.4626 20.365667
33.63209 65.205246 13.626615 101.12957 30.04046 89.464615 52.716404 62.950348
30.081804 31.793947 63.375042 84.48354 91.21852 24.027187 35.095116 66.65594
56.922535 39.838432 129.99689 42.978596 32.568413 29.725725 27.323074 42.67216
25.579437 32.7325 57.627533 36.33781 46.079803 37.23606 43.618996 19.044937
27.767801 19.781082 62.823715 27.444342 13.665552 37.32828 33.62882 16.683962
67.345375 50.16282 63.158943 19.172838 84.35976 60.144962 89.10076 35.432297
36.39513 84.72697 10.321662 41.565556 40.861206 29.856085 19.640236 32.58171
60.54523 48.001865 33.35038 96.7382 20.89982 64.754326 37.266647 26.00672
49.657448 85.88602 106.71058 40.05192 48.718994 114.00333 37.44568 101.58956
59.662926 42.904125 75.895424 55.887035 33.676956 24.736351 144.20547 63.568718
72.91605 32.129257 25.061932 13.624575 39.284554 82.40387 28.333115 104.78494
