models/last_one_eye.pt (torch, 623774 bytes, 50 tensors)

first_eye.0.weight f4 [32, 3, 7, 7]
0.04927718 0.15037285 0.10093031 0.11936569 0.05485492 0.13539341 0.041145116 0.074803285
0.118016854 0.124161586 0.088989004 0.096055664 0.110255964 0.020884546 0.09475621 0.14711858
0.08596775 0.036734357 0.012575402 0.065546416 -0.030774444 0.10435611 0.058409583 0.11353695
0.09791418 0.035036825 0.10476734 0.06523562 -0.001395019 0.112934306 0.015750123 0.041656885
0.07056606 -0.011081282 -0.0022272666 -0.39703113 0.0070410576 -0.042996567 -0.043611012 -0.1086085
-0.025862932 -0.12648888 -0.37647998 -0.1107692 -0.13893893 -0.073453546 -0.19861053 -0.04812577
-0.13551532 0.025913965 -0.004276979 0.047330037 0.06377037 0.14672318 0.08030624 0.037026506
0.02952125 0.059643045 0.059827905 0.092776336 0.10246351 0.102972776 0.009827985 0.14362773
0.14085679 0.21956156 0.055588633 0.11332324 -0.008191092 -0.097956285 0.18942323 0.23015165
0.25399137 0.2215509 0.23444583 0.12293096 0.025777176 0.09297395 0.19446918 0.14602292
0.11799993 0.17047244 0.0848412 -0.067873 -0.054072857 0.16147414 0.1401074 0.17574894
0.16677597 0.06791281 -0.15816057 -0.061802328 0.12588088 0.15893893 0.13150465 0.066971086
0.039612953 -0.008422434 0.15370902 0.1635719 0.109717734 0.11193762 0.0632695 0.13937679
0.05445079 0.13508315 0.17044951 0.13424426 0.12892151 0.14786941 0.11627228 0.053731795
0.09044895 0.15799704 0.11686929 0.14066337 0.17257752 0.06811825 0.14187954 0.16776517
0.20145862 0.10073652 0.16686273 0.13264108 0.12133385 0.08192899 0.063554555 0.16073935
0.1551636 0.07231903 0.14862452 0.09069862 0.13804302 0.0983634 0.17949128 0.16747303
0.07708358 0.12733814 0.1257307 0.08558925 0.16237961 0.09021618 0.112256 0.14546381
0.15932757 0.13477573 0.06842675 -0.09339913 -0.04963728 0.013433662 -0.0014889732 -0.043413717
-0.082719706 -0.08689471 -0.057692233 -0.10716988 -0.1039434 -0.12913223 -0.024132892 -0.03829277
-0.100071095 -0.10191626 -0.03541192 -0.07766604 -0.117488116 -0.07336724 -0.19692829 -0.13655256
-0.06650063 -0.07519331 -0.10683911 -0.13315658 -0.13711056 -0.15864201 -0.14049768 -0.13129993
-0.13225888 -0.081679635 -0.08753719 -0.061262067 -0.16915579 -0.14081627 -0.16915047 -0.09752575
-0.14271316 -0.07879877 -0.10001233 -0.0584614 -0.07040013 -0.17254782 -0.1593235 -0.18498343
-0.1377276 -0.11239015 -0.12215234 -0.10710185 0.18415068 0.13373062 0.15564694 0.21607243
0.1874201 0.17702125 0.18251276 0.11928565 0.17700481 0.19055402 0.17536952 0.2025268
0.09449566 0.17144719 0.16541626 0.15187551 0.12188121 0.10656225 0.10796782 0.051969726
-0.044004977 0.054683864 0.156985 0.07409814 0.08039696 0.0501638 -0.05732329 -0.02714965
-0.0015855295 -0.020798078 0.013717085 0.09654414 0.070319794 -0.09230066 -0.08997138 -0.008678356
0.013123093 -0.017260972 -0.03899051 0.051844656 -0.06832432 -0.07237325 -0.14145514 -0.099816665
-0.12787203 -0.058652908 0.02869619 -0.08445594 -0.032299858 0.17894663 0.18357529 0.12934259
0.15403841 0.07395805 0.10847872 0.06740657 -0.008100572 0.02830516 0.12322992 0.07815079
00000000: ded6 493d 57fb 193e 8db4 ce3d 0076 f43d
00000010: 8daf 603d 92a4 0a3e c887 283d 7732 993d
00000020: d2b2 f13d 6e48 fe3d de3f b63d d5b8 c43d
00000030: e1cd e13d 1116 ab3c 8b0f c23d 41a6 163e
00000040: dc0f b03d c476 163d 0f09 4e3c 333d 863d
00000050: b01a fcbc a8b8 d53d e33e 6f3d 0f86 e83d
00000060: 3b87 c83d c682 0f3d 4290 d63d 419a 853d
00000070: 12d9 b6ba 1a4a e73d 6706 813c 69a0 2a3d
00000080: f084 903d 448e 35bc 55f7 11bb aa47 cbbe
00000090: acb8 e63b 2b1d 30bd 76a1 32bd 226e debd
000000a0: 80de d3bc 4d86 01be fcc1 c0be f6da e2bd
000000b0: 0246 0ebe d06e 96bd 8f60 4bbe 871f 45bd
000000c0: 87c4 0abe 8649 d43c e625 8cbb 24dd 413d
000000d0: 0a9a 823d 9a3e 163e 9977 a43d 1ba9 173d
000000e0: 8cd6 f13c 444c 743d 1b0e 753d 8501 be3d
000000f0: 64d8 d13d 64e3 d23d 8f05 213c 2613 133e
00000100: c33c 103e bfd4 603e e8b0 633d 0416 e83d
00000110: ee33 06bc 4e9d c8bd 2af8 413e e0ac 6b3e
00000120: 280b 823e 3dde 623e 9112 703e 3ac3 fb3d
00000130: a82a d33c 2069 be3d ee22 473e 0887 153e
00000140: f3a9 f13d 5490 2e3e 39c1 ad3d 0001 8bbd
00000150: 807b 5dbd 7a59 253e 5078 0f3e 88f7 333e
00000160: 52c7 2a3e df15 8b3d d8f4 21be 7024 7dbd
00000170: ebe6 003e e3c0 223e 28a9 063e 2328 893d
00000180: 3141 223d 40fe 09bc e665 1d3e 647f 273e
00000190: b1b3 e03d 8d3f e53d 7193 813d cab8 0e3e
000001a0: cb07 5f3d 3d53 0a3e 518a 2e3e 5477 093e
000001b0: 0004 043e 146b 173e 2920 ee3d df15 5c3d
000001c0: 4d3d b93d fac9 213e 2b59 ef3d 0f0a 103e
000001d0: 29b8 303e 9581 8b3d df48 113e a2ca 2b3e
000001e0: 2b4b 4e3e f34e ce3d 10de 2a3e 10d3 073e
000001f0: e27d f83d 63ca a73d e428 823d db98 243e
00000200: 35e3 1e3e 001c 943d 0731 183e 33c0 b93d
00000210: 265b 0d3e c072 c93d 90cc 373e 0d7e 2b3e
00000220: ffdd 9d3d ee64 023e 8cbf 003e 6b49 af3d
00000230: d746 263e 43c3 b83d 79e6 e53d 77f4 143e
00000240: c426 233e a602 0a3e 5323 8c3d 0b48 bfbd
00000250: 7650 4bbd dd18 5c3c a629 c3ba 95d2 31bd
00000260: f368 a9bd dbf5 b1bd b14e 6cbd e27b dbbd
00000270: 47e0 d4bd 3d3b 04be 58b2 c5bc e1d8 1cbd
00000280: 13f2 ccbd 79b9 d0bd 170c 11bd 5f0f 9fbd
00000290: 9c9d f0bd 9041 96bd 92a7 49be 6fd4 0bbe
000002a0: 7b31 88bd f3fe 99bd 77ce dabd 335a 08be
000002b0: b666 0cbe 0d73 22be a0de 0fbe 7d73 06be
000002c0: df6e 07be a747 a7bd b346 b3bd efed 7abd
000002d0: 2d37 2dbe 2432 10be c835 2dbe 95bb c7bd
000002e0: 6623 12be 4061 a1bd 44d3 ccbd 3975 6fbd
000002f0: f12d 90bd 60b0 30be b325 23be 4c6c 3dbe
00000300: 7708 0dbe cf2c e6bd 022b fabd 3758 dbbd
00000310: ff91 3c3e aef0 083e e961 1f3e 1742 5d3e
00000320: 0eeb 3f3e 0f45 353e a0e4 3a3e 094c f43d
00000330: c040 353e 9820 433e 1194 333e 2f63 4f3e
00000340: f186 c13d da8f 2f3e e162 293e 4185 1b3e
00000350: db9c f93d 4f3d da3d 3b1e dd3d 35de 543d
00000360: 903e 34bd 30fc 5f3d adc0 203e c4c0 973d
00000370: 29a7 a43d 8f78 4d3d d3cb 6abd f168 debc
00000380: 8bd1 cfba bb60 aabc a0bd 603c efb8 c53d
00000390: d303 903d 2108 bdbd ea42 b8bd aa2f 0ebc
000003a0: 3e02 573c e266 8dbc 83b4 1fbd 105b 543d
000003b0: 9fed 8bbd 6d38 94bd 9ed9 10be ae6c ccbd
000003c0: e3f0 02be 083e 70bd 4614 eb3c 3cf7 acbd
000003d0: db4c 04bd c93d 373e 29fb 3b3e 6272 043e
000003e0: 3fbc 1d3e 5177 973d 172a de3d 750c 8a3d
000003f0: 43b8 04bc 39e0 e73c f85f fc3d 850d a03d

first_eye.0.bias f4 [32]
-0.093022816 0.10732856 0.094434954 0.09310488 0.08795814 0.06509622 -0.10008637 0.11941376
0.086924076 0.11207644 0.06672579 -0.08637932 -0.11353241 0.073296756 -0.083799094 0.086013176
0.04056072 -0.097487025 -0.07573164 -0.002665085 -0.06380471 0.106210835 0.100288525 0.10256736
-0.08422158 -0.09457388 0.09668252 -0.19079907 0.119375326 0.107458 0.12099962 -0.08830061
00000000: bf82 bebd 13cf db3d 1d67 c13d c5ad be3d
00000010: 6623 b43d 2b51 853d 15fa ccbd 348f f43d
00000020: 4005 b23d 5588 e53d 88a7 883d a4e7 b0bd
00000030: ae83 e8bd 9c1c 963d dc9e abbd ad27 b03d
00000040: ff22 263d 47a7 c7bd 3119 9bbd b5a8 2ebb
00000050: 0bac 82bd 1185 d93d 1264 cd3d d60e d23d
00000060: 5d7c acbd f3af c1bd 7c01 c63d d560 43be
00000070: 0d7b f43d f112 dc3d a6ce f73d f3d6 b4bd

first_eye.1.weight f4 [32]
1.0126983 0.9560515 1.0538787 0.6158604 1.1375138 1.1765869 1.1293988 0.5474458
1.067959 0.9169376 0.9686474 0.86707175 1.3620958 0.9199344 0.85490817 0.9941341
1.9121256 1.1446627 0.7754134 0.86317724 0.9069745 0.8766922 0.7749946 0.9289538
0.826577 0.6869394 1.2756488 1.3113322 0.9359769 0.81382173 0.9862969 1.1361583
00000000: 19a0 813f cbbf 743f 7fe5 863f 07a9 1d3f
00000010: 0d9a 913f 669a 963f 2490 903f 6825 0c3f
00000020: e1b2 883f 6cbc 6a3f 47f9 773f 6af8 5d3f
00000030: 2859 ae3f d280 6b3f 43db 5a3f 937f 7e3f
00000040: 88c0 f43f 4f84 923f 7e81 463f 2ff9 5c3f
00000050: 7b2f 683f e66e 603f 0c66 463f ebcf 6d3f
00000060: 8d9a 533f 43db 2f3f 7648 a33f bcd9 a73f
00000070: 2f9c 6f3f 9f56 503f f47d 7c3f a36d 913f

first_eye.1.bias f4 [32]
-0.016286157 -0.06897388 0.6154425 -0.7502032 0.1068894 -0.0012867708 0.5286475 -0.2701433
0.082949236 0.11608844 -0.1365828 0.650135 -0.031133955 0.3737185 -0.002871973 -0.15764414
0.16709575 -0.2106652 0.12356519 -0.21308433 0.1177151 -0.07740766 -0.30702192 -0.018236805
-0.08372228 -0.23225027 0.03927404 0.115161374 -0.025250455 0.082378246 -0.103520766 -0.0702614
00000000: 8c6a 85bc 2d42 8dbd a48d 1d3f 510d 40bf
00000010: d4e8 da3d dda8 a8ba 7155 073f 3950 8abe
00000020: 4ae1 a93d c7bf ed3d 5ddc 0bbe 3f6f 263f
00000030: a30c ffbc 0858 bf3e b637 3cbb 776d 21be
00000040: 261b 2b3e 9eb8 57be bf0f fd3d c732 5abe
00000050: 9d14 f13d e887 9ebd fa31 9dbe 5a65 95bc
00000060: 9676 abbd 04d3 6dbe d1dd 203d bad9 eb3d
00000070: 0bda cebc edb5 a83d b202 d4bd 35e5 8fbd

first_eye.1.running_mean f4 [32]
1.6233075 -0.4840846 -0.54561466 1.6970546 0.15017122 1.5101696 -0.9415213 -1.0526953
0.97906387 -0.62786156 -2.569844 -1.4586849 -0.32486477 -1.5977117 -1.8091538 -2.0743248
-0.5332659 -1.2727745 -1.9191382 -1.6359987 0.5694749 1.8491371 0.105938904 -1.3623664
1.6197684 1.6207992 1.211997 -1.3638716 -1.8226321 1.7958113 -0.8946521 -1.2613801
00000000: 8ac8 cf3f f0d9 f7be 67ad 0bbf 1639 d93f
00000010: 7cc6 193e 3d4d c13f 8a07 71bf b8be 86bf
00000020: eea3 7a3f 89bb 20bf 5378 24c0 30b6 babf
00000030: ad54 a6be d181 ccbf 5a92 e7bf bdc1 04c0
00000040: 1d84 08bf 46ea a2bf 52a6 f5bf 6868 d1bf
00000050: 1bc9 113f 86b0 ec3f 7ff6 d83d 0662 aebf
00000060: 9254 cf3f 5976 cf3f b822 9b3f 5893 aebf
00000070: 024c e9bf 25dd e53f ec07 65bf e774 a1bf

first_eye.1.running_var f4 [32]
57.02172 12.373167 10.46784 83.133705 22.493723 7.907183 7.7487564 103.13199
10.221488 33.668304 13.030162 13.442676 13.810227 118.88109 111.18139 100.47671
10.815026 13.867828 118.65773 110.8903 96.66169 119.239204 62.817974 106.469765
120.54078 108.89287 15.343447 7.490581 112.18351 68.97871 14.803894 8.386507
00000000: 3e16 6442 7ef8 4541 467c 2741 7544 a642
00000010: 25f3 b341 a507 fd40 d0f5 f740 9443 ce42
00000020: 378b 2341 58ac 0642 8b7b 5041 3315 5741
00000030: b1f6 5c41 1ec3 ed42 df5c de42 13f4 c842
00000040: 590a 2d41 a0e2 5d41 c250 ed42 d5c7 dd42
00000050: c952 c142 797a ee42 9b45 7b42 85f0 d442
00000060: e114 f142 26c9 d942 c27e 7541 d7b2 ef40
00000070: f55d e042 19f5 8942 c0dc 6c41 222f 0641

first_eye.4.weight f4 [64, 32, 5, 5]
0.009947792 -0.07895644 -0.0758387 -0.10788157 -0.032805692 0.009857631 0.04542434 -0.07793437
0.042076264 -0.01757819 0.06811647 0.032191794 -0.15497063 0.013621043 -0.19697346 -0.032900244
-0.020465378 -0.11555532 -0.046422936 -0.19657904 0.0061891126 -0.005403312 -0.12928575 -0.12632301
-0.23618522 -0.0010527511 -0.08022404 0.06985715 -0.03183317 0.020890223 -0.10672747 -0.07751808
-0.045319784 -0.129051 -0.040473104 -0.2373769 -0.0917866 -0.2487758 -0.18969326 -0.23999013
-0.07558408 -0.1805498 -0.19030839 -0.14490998 -0.1241848 -0.009125783 -0.094974056 -0.08733001
-0.105191275 -0.13116285 -0.03141299 -0.063712455 -0.033797063 -0.15137745 -0.13354985 -0.05559284
-0.15661763 -0.174833 -0.17093402 -0.07269049 -0.11929239 -0.23863135 -0.31207433 -0.2244549
-0.11565181 0.006399245 -0.116074435 -0.23677847 -0.23977691 -0.08590401 0.11731601 0.008018466
-0.14112169 -0.12567535 -0.18092817 -0.1221391 -0.028618382 -0.086384 -0.095109165 -0.098682135
0.02961639 0.11361535 0.03910279 -0.17032477 -0.13826661 0.053241365 -0.03034237 0.0433707
-0.06307932 -0.13518898 0.12053237 -0.12083443 -0.09378875 -0.13388869 -0.14506985 -0.030251779
-0.04630087 -0.07140448 -0.15645997 -0.18680798 -0.0619234 -0.15037899 -0.14458562 -0.08258824
0.086499125 -0.024972284 0.0829639 0.04421851 0.03816186 -0.0012814706 0.030274067 0.015011239
0.034017168 -0.07057357 -0.040515542 -0.09200983 -0.16916558 -0.1437206 -0.19472216 -0.22271988
-0.14759701 -0.1715066 -0.20322593 -0.19639486 -0.18055817 -0.07576684 -0.1645824 -0.13829224
0.07910405 0.05503417 -0.068706855 -0.07422326 -0.06570637 0.11217308 0.024965672 -0.03653663
-0.09217604 -0.099932514 -0.07659503 -0.087448455 -0.044782083 -0.274553 -0.11064055 -0.17965944
-0.25260523 -0.13396744 -0.16874911 -0.15027468 -0.16610326 -0.22673441 -0.048590288 -0.11038013
-0.1479612 -0.1899133 -0.12408169 0.049884383 -0.053005416 -0.018617801 -0.060347144 -0.007632455
0.035131168 0.013240693 -0.02863588 -0.08202566 -0.08353359 0.030159239 0.0019898086 -0.019387918
-0.1086311 -0.052295208 -0.10502212 -0.06605712 -0.09585438 -0.15532658 -0.14138384 -0.14276111
-0.12182498 -0.041609924 0.056305394 0.0794027 -0.16053577 -0.124489486 -0.009406237 0.08419306
0.074821636 -0.049165227 -0.08355652 0.0313842 0.09996185 0.034158077 -0.12462415 -0.0683874
0.037520465 0.050827507 0.06462128 -0.11686414 -0.108702436 -0.14491045 -0.01906442 -0.031574607
-0.016494256 -0.047472738 -0.15393914 -0.06197823 -0.0085278535 0.10808623 0.101823635 0.08966711
0.08062769 0.10330199 0.10106419 0.07795346 0.06597597 0.080135286 0.08183214 -0.0058157323
0.071088955 -0.08172897 -0.10430486 -0.15248358 -0.0066836337 0.017290482 -0.10910896 -0.117248364
-0.12821493 -0.18061218 -0.20015208 0.00040522747 0.1128038 0.10958381 -0.026390878 -0.08142097
0.11632768 0.106050745 0.09710826 0.008123639 0.0061807632 -0.012046209 0.051277738 -0.04519761
-0.16589054 -0.10516265 0.029472586 0.052664246 0.02608415 -0.13242373 -0.097419076 -0.06379165
0.038409036 0.027659422 -0.13794479 -0.104632154 -0.11891481 -0.047779012 0.007048116 0.031189367
00000000: 10fc 223c eab3 a1bd 5251 9bbd 03f1 dcbd
00000010: 435f 06bd e781 213c df0e 3a3d 0e9c 9fbd
00000020: 2958 2c3d 2300 90bc a680 8b3d 8bdb 033d
00000030: 9fb0 1ebe cc2a 5f3c 69b3 49be 68c2 06bd
00000040: 02a7 a7bc 45a8 ecbd fa25 3ebd 044c 49be
00000050: 0ace ca3b 440e b1bb 7c63 04be d25a 01be
00000060: 8ada 71be 77fc 89ba 804c a4bd 4411 8f3d
00000070: 8063 02bd f921 ab3c ef93 dabd cdc1 9ebd
00000080: 3da1 39bd f225 04be 20c7 25bd ee12 73be
00000090: 9dfa bbbd 15bf 7ebe f33e 42be f9bf 75be
000000a0: d3cb 9abd 0ce2 38be 34e0 42be 4863 14be
000000b0: 9a54 febd 4f84 15bc c281 c2bd 14da b2bd
000000c0: 866e d7bd 8e4f 06be e8aa 00bd ad7b 82bd
000000d0: ca6e 0abd b102 1bbe 4bc1 08be 51b5 63bd
000000e0: 5f60 20be 6c07 33be 5409 2fbe c0de 94bd
000000f0: 924f f4bd c75b 74be 35c8 9fbe 81d7 65be
00000100: dbda ecbd c2b0 d13b 6fb8 edbd 0e76 72be
00000110: 1488 75be 71ee afbd 6043 f03d e25f 033c
00000120: 3482 10be 0ab1 00be 3c45 39be 1124 fabd
00000130: 1971 eabc 18ea b0bd 98c8 c2bd dc19 cabd
00000140: 129e f23c 2aaf e83d 3f2a 203d 9e69 2ebe
00000150: c395 0dbe 9e13 5a3d 9090 f8bc 7aa5 313d
00000160: bb2f 81bd fb6e 0abe add9 f63d 0b78 f7bd
00000170: 5114 c0bd 1e1a 09be 318d 14be 94d2 f7bc
00000180: fba5 3dbd 833c 92bd 0b37 20be 974a 3fbe
00000190: 64a3 7dbd f3fc 19be 410e 14be 0624 a9bd
000001a0: 7426 b13d ad92 ccbc fae8 a93d 781e 353d
000001b0: 9c4f 1c3d 05f7 a7ba 5201 f83c b3f1 753c
000001c0: 9655 0b3d e088 90bd a0f3 25bd a66f bcbd
000001d0: be39 2dbe 7e2b 13be 3f65 47be ae10 64be
000001e0: ac23 17be 6d9f 2fbe 751a 50be bc1b 49be
000001f0: 3ee4 38be a52b 9bbd 4a88 28be 7b9c 0dbe
00000200: 4e01 a23d 836b 613d 2eb6 8cbd 5d02 98bd
00000210: 1091 86bd 00bb e53d cf84 cc3c 6fa7 15bd
00000220: cbc6 bcbd 6ba9 ccbd dbdd 9cbd 2d18 b3bd
00000230: 6b6d 37bd 3692 8cbe 8397 e2bd a5f8 37be
00000240: 7955 81be c32e 09be 91cc 2cbe 9be1 19be
00000250: f916 2abe 112d 68be 9c06 47bd fa0e e2bd
00000260: 2483 17be a278 42be 8b1e febd 9153 4c3d
00000270: 351c 59bd 5c84 98bc 912e 77bd ac19 fabb
00000280: b3e5 0f3d 7eef 583c cb95 eabc 12fd a7bd
00000290: a913 abbd 8210 f73c 7367 023b 69d3 9ebc
000002a0: fb79 debd 8033 56bd d615 d7bd f548 87bd
000002b0: 4d4f c4bd ee0d 1fbe edc6 10be f82f 12be
000002c0: 607f f9bd 2b6f 2abd 7ca0 663d e29d a23d
000002d0: 7d63 24be 58f4 febd 9e1c 1abc 696d ac3d
000002e0: 163c 993d 7a61 49bd ae1f abbd b88c 003d
000002f0: ccb8 cc3d 57e9 0b3d f23a ffbd b10e 8cbd
00000300: 0faf 193d 8130 503d 2958 843d 7756 efbd
00000310: 629f debd 6863 14be fd2c 9cbc 6054 01bd
00000320: f61e 87bc c672 42bd 39a2 1dbe e2dc 7dbd
00000330: 69b8 0bbc 505c dd3d e988 d03d 64a3 b73d
00000340: 2120 a53d fe8f d33d befa ce3d 10a6 9f3d
00000350: 691e 873d f81d a43d 9c97 a73d e691 bebb
00000360: 1697 913d 8561 a7bd c99d d5bd a824 1cbe
00000370: 6202 dbbb c5a4 8d3c 8574 dfbd e91f f0bd
00000380: c64a 03be 66f2 38be abf4 4cbe b674 d439
00000390: ae05 e73d 7a6d e03d af31 d8bc 0ac0 a6bd
000003a0: 353d ee3d 2231 d93d b2e0 c63d 0319 053c
000003b0: 0088 ca3b 765d 45bc 9b08 523d 2121 39bd
000003c0: 36df 29be 845f d7bd 7e70 f13c 77b6 573d
000003d0: 6dae d53c 169a 07be a783 c7bd 32a5 82bd
000003e0: cb52 1d3d 0396 e23c 6641 0dbe 6249 d6bd
000003f0: 9c89 f3bd edb3 43bd e2f3 e63b d880 ff3c

first_eye.4.bias f4 [64]
0.12483549 -0.08636944 -0.11316553 0.11050227 0.02325755 -0.10141989 0.09610441 0.2545937
0.10166194 0.12149551 0.106088124 0.09119566 0.11931557 -0.07876904 0.105443165 0.08871601
0.13032925 0.106122494 -0.08719823 -0.054559052 -0.034074157 -0.23117992 0.10858251 0.106743746
0.16194566 0.4611604 0.09945786 0.10608812 0.091094494 0.088792086 -0.08608813 0.22711797
0.106088124 0.11294505 0.17587729 0.10939569 0.1404309 0.2632105 0.15084292 -0.0860881
-0.03794218 0.049906243 0.10655617 0.10755045 0.10608811 0.070244186 0.08000686 0.32736993
0.009545194 -0.051497817 0.10634514 0.11080521 0.18709373 0.21733846 0.14974739 0.29758346
0.19606459 0.10606389 -0.08608813 -0.20875819 0.10655931 0.120960645 0.106158264 -0.041607838
00000000: c0a9 ff3d 76e2 b0bd 54c3 e7bd 044f e23d
00000010: 9e86 be3c 3bb5 cfbd 64d2 c43d 1b5a 823e
00000020: 2334 d03d a3d2 f83d bb44 d93d cac4 ba3d
00000030: b95b f43d aa51 a1bd 96f2 d73d bdb0 b53d
00000040: 0875 053e c056 d93d fc94 b2bd 5079 5fbd
00000050: 5891 0bbd 6eba 6cbe 8260 de3d 779c da3d
00000060: 15d5 253e 371d ec3e 90b0 cb3d ba44 d93d
00000070: c08f ba3d a0d8 b53d f94e b0bd 9d91 683e
00000080: bb44 d93d bc4f e73d 2d19 343e d90a e03d
00000090: 1ecd 0f3e 87c3 863e 9176 1a3e f54e b0bd
000000a0: 4269 1bbd 7d6a 4c3d 1f3a da3d 6943 dc3d
000000b0: b944 d93d 2fdc 8f3d a3da a33d 089d a73e
000000c0: 7263 1c3c 60ef 52bd 7bcb d93d d8ed e23d
000000d0: 8095 3f3e f98d 5e3e 6157 193e dc5c 983e
000000e0: 28c5 483e 0638 d93d f94e b0bd b5c4 55be
000000f0: c43b da3d 37ba f73d 8169 d93d fb6c 2abd

first_eye.6.weight f4 [64]
1.1455848 0.85152274 1.0527775 0.8492071 1.197877 1.1215771 0.919216 1.0354416
0.8919068 0.70069116 0.45462972 0.48846844 1.1277286 1.0186329 0.92782813 1.0615276
0.769474 0.58714473 1.0960867 1.1311871 0.71564466 0.7910522 0.81874454 0.48817447
0.57699245 0.9252611 0.6447914 0.94183403 1.1239753 1.2526518 0.90391237 1.3984046
0.57308346 0.9706955 0.5392978 0.7019259 1.1008259 2.023014 0.5895948 0.9039124
1.1081864 0.9483796 0.7531317 0.52648324 0.4161219 1.0053566 1.5684679 0.8961229
0.86128527 1.038923 1.3553922 0.74726796 1.0083941 1.2502831 2.1728067 0.6972132
1.6758932 0.3577923 0.9039124 1.7774508 0.46477383 0.67123866 0.9569735 0.5063999
00000000: 86a2 923f 65fd 593f 6ac1 863f a365 593f
00000010: 0954 993f d78f 8f3f bd51 6b3f 5a89 843f
00000020: 0154 643f 7f60 333f 3ac5 e83e 8918 fa3e
00000030: 6959 903f 9062 823f 2586 6d3f 23e0 873f
00000040: 40fc 443f 1e4f 163f 924c 8c3f bdca 903f
00000050: 7d34 373f 6682 4a3f 3e99 513f 01f2 f93e
00000060: c7b5 133f e9dd 6c3f 0d11 253f 091c 713f
00000070: 6cde 8f3f e556 a03f cd66 673f ecfe b23f
00000080: 99b5 123f 807f 783f 6c0f 0a3f 6ab1 333f
00000090: dde7 8c3f 1079 0140 afef 163f ce66 673f
000000a0: 0dd9 8d3f 01c9 723f 3dcd 403f 9bc7 063f
000000b0: ee0d d53e 86af 803f 8ec3 c83f 4f68 653f
000000c0: 317d 5c3f 6efb 843f 7e7d ad3f f44c 3f3f
000000d0: 0f13 813f 4709 a03f 440f 0b40 907c 323f
000000e0: ab83 d63f 8d30 b73e ce66 673f 8283 e33f
000000f0: d6f6 ed3e 4cd6 2b3f 37fc 743f 6da3 013f

first_eye.6.bias f4 [64]
-0.029689647 -0.015203064 -0.19724883 -0.127977 -0.015607099 0.31630933 -0.1218166 0.10008453
0.788747 0.15920563 0.04854043 0.17216533 0.17496589 -0.26148346 -0.18336335 -0.3019582
-0.16042651 -0.3518425 0.044142798 -0.6467967 -0.007404354 0.34112775 0.015448889 -0.19159423
0.17585392 -0.4165341 0.2572492 -0.068768285 0.07261119 0.23117226 -0.15323912 -0.39900336
0.025075192 -0.47684997 -0.15854461 -0.0008604635 -0.13094305 0.432251 -0.049158785 0.040958706
0.18287046 0.071258284 0.22759713 0.027286056 -0.0061445436 -0.19741014 0.15689753 -0.3833999
-0.00053977617 -0.4014596 0.0648046 -0.29517516 -0.06897877 -0.30929777 0.8397294 -0.2107387
0.020634608 -0.13498317 0.022824973 0.2234035 -0.022091022 -0.19533402 -0.21411744 0.21975869
00000000: b437 f3bc 4616 79bc 99fb 49be 670c 03be
00000010: ebb4 7fbc 4cf3 a13e fb7a f9bd 1ef9 cc3d
00000020: 53eb 493f cd06 233e 54d2 463d 1c4c 303e
00000030: 422a 333e 29e1 85be 9ac3 3bbe 449a 9abe
00000040: d946 24be b324 b4be 14cf 343d 7894 25bf
00000050: 39a0 f2bb 4ca8 ae3e 561d 7d3c 4731 44be
00000060: 0d13 343e f543 d5be 2bb6 833e 63d6 8cbd
00000070: 2db5 943d 6cb8 6c3e b7ea 1cbe 2b4a ccbe
00000080: 7d6a cd3c ae25 f4be 8559 22be ba90 61ba
00000090: ef15 06be 0150 dd3e b95a 49bd 51c4 273d
000000a0: 6542 3b3e ddef 913d 390f 693e 0287 df3c
000000b0: 2b58 c9bb e225 4abe bfa9 203e fe4c c4be
000000c0: c47f 0dba 1d8c cdbe 46b8 843d 3321 97be
000000d0: be44 8dbd 475c 9ebe 82f8 563f e3cb 57be
000000e0: e909 a93c 0739 0abe 70fb ba3c e3c3 643e
000000f0: 3bf8 b4bc a405 48be 9a41 5bbe 6c08 613e

first_eye.6.running_mean f4 [64]
6e-45 0.21712917 6e-45 10.455356 3.2014327 6e-45 13.791209 1.5939094
3.4861028 4.5298586 22.169641 3.0086572 7.6404014 0.6017222 8.1575165 0.17846602
8.145744 13.254451 6e-45 2.258981 1.5894368 0.95733654 11.4884815 15.189739
8.374145 15.945739 2.030851 18.350199 6e-45 5.8683414 6e-45 1.5616459
18.392244 5.6764216 11.586674 18.561142 6.8098283 1.7687172 19.483957 6e-45
6e-45 6e-45 15.450134 12.245504 23.18811 6e-45 0.44835997 10.614545
6e-45 1.4245224 2.3420708 10.543425 12.408456 1.4064237 2.4856648 15.998785
8.457163 16.295073 6e-45 2.1314757 17.699167 5.3480897 18.04746 2.9876738
00000000: 0400 0000 1c57 5e3e 0400 0000 2349 2741
00000010: 46e4 4c40 0400 0000 cba8 5c41 3905 cc3f
00000020: 4f1c 5f40 9af4 9040 6d5b b141 d78d 4040
00000030: 2b7e f440 770a 1a3f 3085 0241 ccbf 363e
00000040: f854 0241 3b12 5441 0400 0000 2593 1040
00000050: aa72 cb3f 0214 753f d2d0 3741 2c09 7341
00000060: 7ffc 0541 bf21 7f41 76f9 0140 35cd 9241
00000070: 0400 0000 74c9 bb40 0400 0000 03e4 c73f
00000080: 5123 9341 3fa5 b540 0463 3941 387d 9441
00000090: 1dea d940 5365 e23f 25df 9b41 0400 0000
000000a0: 0400 0000 0400 0000 c033 7741 96ed 4341
000000b0: 4081 b941 0400 0000 708f e53e 2dd5 2941
000000c0: 0400 0000 c056 b63f 7de4 1540 deb1 2841
000000d0: 0989 4641 b105 b43f 2215 1f40 06fb 7f41
000000e0: 8a50 0741 4f5c 8241 0400 0000 196a 0840
000000f0: e597 8d41 8d23 ab40 3361 9041 0c36 3f40

first_eye.6.running_var f4 [64]
6e-45 1.137988 6e-45 100.128494 23.664286 6e-45 73.438 11.91299
33.56943 40.727642 116.56193 21.425861 43.025803 3.45783 114.939896 1.0663912
117.89498 60.555508 6e-45 11.968448 9.266231 6.467265 59.030373 146.21635
105.3404 135.92532 10.7889185 114.2676 6e-45 29.282866 6e-45 10.882853
65.028175 65.53885 195.20848 175.83112 33.80961 15.964992 224.6861 6e-45
6e-45 6e-45 95.15759 106.27204 128.9638 6e-45 2.6492302 97.33739
6e-45 8.103429 19.221622 55.236786 65.31397 7.845932 15.150264 172.01144
63.478794 87.54702 6e-45 20.371542 118.115524 24.291935 67.6023 22.132645
00000000: 0400 0000 97a9 913f 0400 0000 ca41 c842
00000010: 7550 bd41 0400 0000 42e0 9242 9b9b 3e41
00000020: 1947 0642 1be9 2242 b51f e942 2a68 ab41
00000030: 6c1a 2c42 164d 5d40 3ae1 e542 827f 883f
00000040: 3bca eb42 d738 7242 0400 0000 c37e 3f41
00000050: 7b42 1441 d6f3 ce40 1a1f 6c42 6337 1243
00000060: 49ae d242 e2ec 0743 699f 2c41 0389 e442
00000070: 0400 0000 4f43 ea41 0400 0000 2a20 2e41
00000080: 6d0e 8242 e413 8342 5f35 4343 c4d4 2f43
00000090: 0a3d 0742 9b70 7f41 a4af 6043 0400 0000
000000a0: 0400 0000 0400 0000 b050 be42 498b d442
000000b0: bcf6 0043 0400 0000 fd8c 2940 beac c242
000000c0: 0400 0000 a5a7 0141 e2c5 9941 78f2 5c42
000000d0: c1a0 8242 e011 fb40 7b67 7241 ee02 2c43
000000e0: 49ea 7d42 1318 af42 0400 0000 ebf8 a241
000000f0: 263b ec42 e255 c241 6134 8742 a80f b141

first_eye.8.weight f4 [128, 64, 3, 3]
-0.12684883 -0.11812559 -0.04875287 -0.098518625 -0.09552634 -0.15024473 0.08560113 0.11977106
0.10807009 0.08210002 0.09785948 -0.108746596 -0.09763232 0.154947 -0.022461986 -0.046539385
-0.12731147 -0.16888887 -0.12214112 -0.052030932 0.08084445 -0.058804225 -0.15369941 -0.15764935
-0.07383742 -0.097316325 -0.11595345 -0.13392305 -0.07232004 0.12657271 0.04598777 -0.11608594
-0.23977292 0.15123297 -0.02470174 -0.12463174 0.22789216 0.1646877 0.17401578 -0.085938565
-0.15304205 -0.1321179 -0.3706486 0.022777442 -0.15556599 -0.07748507 -0.12749988 0.03050625
-0.1284502 -0.04010004 -0.08221912 -0.088784024 -0.16980736 -0.18803468 -0.08644631 0.030114962
0.24243909 -0.08229469 -0.03943255 0.22057524 -0.12550792 -0.028061267 -0.070659205 -0.20884234
-0.16706131 -0.07904837 -0.094376326 0.16489355 0.12219367 0.17842108 0.1755036 0.08147611
-0.018096235 -0.056015667 0.21952859 -0.06432928 -0.086309485 0.0012617515 -0.04640832 0.12102395
-0.07684217 -0.05304281 -0.11753815 0.011769915 -0.16759756 -0.12943672 -0.15825021 -0.106342725
-0.076856345 -0.17294084 0.12991343 -0.07763497 0.19307141 0.02457206 0.096019164 0.1630998
0.090230174 0.10504908 0.1253447 0.13706173 0.044584144 -0.075198114 -0.06655182 -0.13005401
-0.11518389 -0.13053678 -0.14646862 -0.0708588 -0.09666077 0.0021587233 -0.09249056 -0.15321103
-0.16266641 -0.25084028 0.10395272 0.11161664 0.10040839 -0.054334365 0.17652465 0.092889465
-0.1379831 -0.097072914 0.11610485 -0.12586716 -0.027758185 -0.035580143 -0.092937216 -0.083889894
-0.054951683 -0.13944432 -0.11954797 -0.1003228 0.11841009 0.074897036 0.08862126 -0.018252315
-0.05529936 -0.16437201 -0.10556902 -0.15477708 0.21110685 -0.07669234 -0.14104079 -0.012324592
-0.06534256 -0.10996428 -0.075921334 0.20206241 0.2693526 0.18267028 0.08841072 0.12977289
0.111265585 -0.106404096 0.14664556 0.37337124 -0.10087607 0.013946015 0.27091113 0.08825412
0.13329306 0.20051135 0.06555019 0.08255791 0.10038212 0.13850561 -0.05804164 0.105014555
-0.12711835 -0.091187365 -0.067357086 -0.19717845 -0.39705035 0.0494183 -0.10870838 -0.11747126
-0.10946552 -0.041732553 -0.052133735 -0.07535823 0.03055988 -0.06108174 -0.019571368 6.619603e-05
-0.12036586 -0.10707619 -0.0072297268 -0.00883079 -0.058603395 -0.095361084 -0.012960295 -0.061493866
0.15877701 0.065572344 -0.035709947 0.08027054 0.126742 0.19903384 0.047669493 0.12290086
0.17054446 -0.11734532 -0.10396878 -0.074241005 -0.08493524 -0.027434647 -0.11905997 -0.06275366
-0.11834531 -0.038628165 -0.06785289 -0.15450007 -0.03409052 0.14704883 -0.08037346 -0.018475382
-0.1300552 -0.08679716 -0.010782009 0.093024805 0.02231837 0.0067633796 0.034838546 -0.03993115
0.060528383 -0.082972914 -0.08720654 0.024538768 -0.094850585 -0.17022169 -0.03642207 0.05483817
0.14319779 0.14274415 0.08582792 0.07751482 0.09611948 -0.13453579 -0.12688327 -0.15194239
-0.06413406 -0.07153309 -0.09171982 0.13945802 0.1007623 0.14308637 -0.07513225 -0.07402423
0.2724166 -0.12184143 -0.036187418 0.0830592 -0.095518515 -0.08898701 0.15461643 -0.038859267
00000000: a9e4 01be d4eb f1bd 17b1 47bd 22c4 c9bd
00000010: 50a3 c3bd c1d9 19be a54f af3d 884a f53d
00000020: da53 dd3d 0e24 a83d 8d6a c83d 89b6 debd
00000030: 74f3 c7bd 6daa 1e3e 3302 b8bc 15a0 3ebd
00000040: f05d 02be 34f1 2cbe 2025 fabd 631e 55bd
00000050: c691 a53d b3dc 70bd 6163 1dbe d56e 21be
00000060: 1338 97bd c84d c7bd 0179 edbd 2023 09be
00000070: 871c 94bd 479c 013e ac5d 3c3d 77be edbd
00000080: 0887 75be d1dc 1a3e 4e5b cabc ed3e ffbd
00000090: 905c 693e e4a3 283e 3131 323e 8f00 b0bd
000000a0: 0eb7 1cbe ea49 07be a7c5 bdbe c297 ba3c
000000b0: b14c 1fbe 7eb0 9ebd 548f 02be 3ee8 f93c
000000c0: 7388 03be f13f 24bd 7f62 a8bd 66d4 b5bd
000000d0: fbe1 2dbe 2a8c 40be c30a b1bd a7b3 f63c
000000e0: f441 783e 1e8a a8bd 0784 21bd 7ade 613e
000000f0: 2685 00be bee0 e5bc c6b5 90bd c4da 55be
00000100: 1f12 2bbe 1de4 a1bd 6048 c1bd dbd9 283e
00000110: ad40 fa3d 04b4 363e 37b7 333e f2dc a63d
00000120: 8e3e 94bc af70 65bd 1acc 603e 12bf 83bd
00000130: 07c3 b0bd 5b61 a53a a716 3ebd 68db f73d
00000140: 6d5f 9dbd 6b43 59bd d7b7 f0bd 9ad6 403c
00000150: b29e 2bbe 0f8b 04be 580c 22be 37ca d9bd
00000160: dc66 9dbd 6717 31be 0708 053e 15ff 9ebd
00000170: 83b4 453e 584b c93c b2a5 c43d a203 273e
00000180: 99ca b83d f923 d73d 5c5a 003e e959 0c3e
00000190: dd9d 363d 7801 9abd 524c 88bd e12c 05be
000001a0: 88e5 ebbd 6fab 05be dffb 15be 6b1e 91bd
000001b0: 15f6 c5bd 5e79 0d3b b16b bdbd 5ae3 1cbe
000001c0: 0692 26be 236e 80be 2ae5 d43d 4497 e43d
000001d0: eaa2 cd3d b68d 5ebd e1c2 343e d53c be3d
000001e0: 714b 0dbe 2ace c6bd 61c8 ed3d 52e3 00be
000001f0: 2265 e3bc 7cbc 11bd de55 bebd 77ce abbd
00000200: 0415 61bd 7eca 0ebe 91d5 f4bd 0a76 cdbd
00000210: fd80 f23d 9e63 993d 107f b53d e185 95bc
00000220: 9581 62bd 2351 28be 9234 d8bd e27d 1ebe
00000230: 652c 583e e010 9dbd ff6c 10be 16ed 49bc
00000240: 52d2 85bd f434 e1bd a57c 9bbd 73e9 4e3e
00000250: 96e8 893e eb0d 3b3e ae10 b53d 2fe3 043e
00000260: 36df e33d 64ea d9bd 412a 163e 842a bf3e
00000270: 1d98 cebd d47d 643c ddb4 8a3e 93be b43d
00000280: fa7d 083e d952 4d3e 2e3f 863d 1f14 a93d
00000290: 2495 cd3d 6ad4 0d3e 12bd 6dbd df11 d73d
000002a0: 502b 02be 71c0 babd 83f2 89bd 26e9 49be
000002b0: 2f4a cbbe d86a 4a3d 80a2 debd c694 f0bd
000002c0: 752f e0bd c1ef 2abd 2f8a 55bd 6a55 9abd
000002d0: b758 fa3c d930 7abd 2254 a0bc b9d2 8a38
000002e0: 6082 f6bd c34a dbbd 58e7 ecbb 05af 10bc
000002f0: 1d0a 70bd ac4c c3bd 6b57 54bc fee0 7bbd
00000300: 7196 223e cb4a 863d 9844 12bd e264 a43d
00000310: a8c8 013e 87cf 4b3e 1641 433d 72b3 fb3d
00000320: 35a3 2e3e be52 f0bd 95ed d4bd ab0b 98bd
00000330: 87f2 adbd a0be e0bc b7d5 f3bd fe84 80bd
00000340: 075f f2bd 9138 1ebd 75f6 8abd 4435 1ebe
00000350: 80a2 0bbd f893 163e d79a a4bd af59 97bc
00000360: 312d 05be b6c2 b1bd 06a7 30bc ca83 be3d
00000370: 04d5 b63c 579f dd3b ddb2 0e3d d88e 23bd
00000380: 9cec 773d b4ed a9bd 5899 b2bd 8705 c93c
00000390: 0641 c2bd 984e 2ebe 4f2f 15bd fd9d 603d
000003a0: 71a2 123e 862b 123e 8cc6 af3d 17c0 9e3d
000003b0: 4ada c43d c0c3 09be b0ed 01be c996 1bbe
000003c0: b858 83bd f17f 92bd 9ad7 bbbd 15ce 0e3e
000003d0: 775c ce3d 3c85 123e f0de 99bd 049a 97bd
000003e0: 307a 8b3e 0088 f9bd 4239 14bd f11a aa3d
000003f0: 369f c3bd d23e b6bd c553 1e3e e52a 1fbd

first_eye.8.bias f4 [128]
-0.08329807 2.2411464e-06 0.0065759756 -0.05521978 0.08372886 0.08998921 0.10866372 -0.03962168
-0.07808482 0.07732259 -0.0737938 -0.07625714 -0.1082637 0.114961416 -0.051345564 0.09150126
-0.06956298 0.08937675 0.030252498 0.05006499 0.086713165 0.020389229 -0.045949634 0.016189903
0.10516828 0.101521194 -0.010668946 -0.06072373 0.01802324 0.016423954 -0.08731573 0.02526388
-0.077094235 -0.082155176 0.06251879 -0.1020536 0.0747619 -0.086667456 -0.08365993 -0.0031656153
-0.07733317 0.039239794 0.05439859 -0.06674663 -0.08153482 -0.069879144 0.003898111 0.071129255
0.0033553804 0.099054605 0.08341634 0.063172 0.04212111 -0.023818634 -0.0016060767 0.12651195
0.09679098 0.078103095 0.10438385 -0.09013152 0.08640044 0.085637406 0.11578242 -0.085399315
0.084544934 0.07517213 -0.06194301 -0.08751734 -0.061494064 -0.08811399 0.054931283 0.07999285
-0.054707497 0.13011445 0.015945567 0.07754197 -0.049351912 0.029771306 -0.03921427 0.09619426
-0.013887109 -0.06183281 0.04701844 0.10022294 0.095445134 0.09256269 0.054906685 0.106026195
0.0028551018 0.07735325 -0.0793195 -0.009267422 -0.052089 -0.09863439 -0.078275956 0.03342904
0.07911115 0.053288274 0.054183662 -0.059767727 -0.060695846 -0.064588375 0.04396038 0.11217393
0.069372006 0.12166393 -0.09461798 -0.08202458 0.069407485 -0.07273445 0.10212362 0.101099454
0.09012813 -0.08017948 0.073973775 -0.066599116 -0.08525769 0.118562914 -0.07340621 0.0424261
-0.06548551 -0.07945235 -0.07538897 0.08120251 0.096210934 0.035038773 -0.080603704 0.10468106
00000000: 2e98 aabd 9a66 1636 487b d73b 232e 62bd
00000010: 097a ab3d 434c b83d 168b de3d 584a 22bd
00000020: efea 9fbd 4e5b 9e3d 3421 97bd b42c 9cbd
00000030: 5cb9 ddbd e470 eb3d ba4f 52bd 0365 bb3d
00000040: 0977 8ebd 280b b73d 16d4 f73c f210 4d3d
00000050: ac96 b13d 5007 a73c af35 3cbd b0a0 843c
00000060: 7862 d73d 58ea cf3d cecc 2ebc 72b9 78bd
00000070: 79a5 933c 878b 863c 97d2 b2bd 32f6 ce3c
00000080: 95e3 9dbd f940 a8bd da09 803d 7a01 d1bd
00000090: c41c 993d b57e b1bd e655 abbd 3676 4fbb
000000a0: da60 9ebd e8b9 203d 0ed1 5e3d 75b2 88bd
000000b0: bafb a6bd cc1c 8fbd 7377 7f3b 37ac 913d
000000c0: f1e5 5b3b 24dd ca3d 30d6 aa3d 5260 813d
000000d0: 2f87 2c3d 4c1f c3bc fe82 d2ba 598c 013e
000000e0: 593a c63d 84f4 9f3d 33c7 d53d e096 b8bd
000000f0: b7f2 b03d aa62 af3d 551f ed3d d6e5 aebd
00000100: e525 ad3d d8f3 993d f4b7 7dbd 4b3c b3bd
00000110: 33e1 7bbd 1c75 b4bd a0ff 603d 4bd3 a33d
00000120: f814 60bd b93c 053e 47a0 823c 53ce 9e3d
00000130: 3b25 4abd f4e2 f33c 249f 20bd 7f01 c53d
00000140: c286 63bc 6744 7dbd 6896 403d af41 cd3d
00000150: bd78 c33d 8291 bd3d d5e5 603d 4324 d93d
00000160: a91c 3b3b 616b 9e3d 4372 a2bd 63d6 17bc
00000170: 465b 55bd d400 cabd 254f a0bd e4ec 083d
00000180: 0705 a23d ce44 5a3d b0ef 5d3d 01cf 74bd
00000190: 359c 78bd e946 84bd cd0f 343d 72bb e53d
000001a0: e912 8e3d f02a f93d 12c7 c1bd 81fc a7bd
000001b0: 8325 8e3d cdf5 94bd 3026 d13d 3b0d cf3d
000001c0: 1995 b83d 2435 a4bd 907f 973d 1e65 88bd
000001d0: 959b aebd 1dd1 f23d ff55 96bd fdc6 2d3d
000001e0: 441d 86bd eab7 a2bd 8865 9abd 804d a63d
000001f0: 3d0a c53d d184 0f3d 8e13 a5bd 0663 d63d

first_eye.9.weight f4 [128]
0.87520653 0.6178297 0.63512844 0.8158717 1.4122666 0.8950505 1.2858936 0.80721563
0.6350951 0.83239275 1.5580051 1.2789451 0.7092322 1.1519586 0.51681453 0.7865137
0.9665913 0.7493854 0.8382884 0.53695256 0.88622105 1.3527515 0.6979667 2.466578
0.8297486 0.7882246 0.7000228 0.7680235 1.1629485 0.7120687 1.1783689 0.6849155
0.7874689 0.60673344 0.75900126 0.78815573 0.78165865 0.77798086 0.7761831 0.80715686
1.2597698 0.70571536 0.6419229 0.46633428 0.9273039 1.2296509 0.76205033 0.71057093
0.81833905 1.0776 0.7919602 0.5587467 0.48958373 0.9659593 1.121259 0.81034595
0.76658994 1.614432 0.6274809 1.0200286 0.96014076 1.205372 1.3553591 0.9145118
1.227802 0.7572214 0.72076386 0.81150883 1.3158231 0.8202908 1.3311871 0.9832093
1.1017032 0.84853834 0.8532937 1.2693403 1.243432 0.8230592 1.3426199 1.2143261
0.7327005 0.92221284 0.5340034 0.834294 0.5648916 0.86440665 0.8256379 0.7673556
0.7910413 0.86658835 0.61930865 1.3160384 0.56894606 1.0130836 0.6810843 1.2300307
0.7938018 0.36536133 1.2134448 0.82531655 1.2172716 0.9102862 1.2616583 1.3854908
0.91381633 0.9087848 1.4884944 0.82936996 0.59577364 0.71382713 1.8474402 0.55158687
0.53681535 1.3972629 0.8646154 0.7427152 0.90821636 0.84576625 0.7815277 2.3004522
1.9243563 0.8980117 1.6654288 0.7426655 0.7149888 0.8313845 0.9495922 1.0064528
00000000: 890d 603f 162a 1e3f c797 223f f8dc 503f
00000010: 27c5 b43f 0822 653f 2998 a43f afa5 4e3f
00000020: 9895 223f b117 553f b66c c73f 79b4 a33f
00000030: 3e90 353f 6173 933f f54d 043f f658 493f
00000040: 8772 773f b9d7 3f3f 129a 563f b975 093f
00000050: 62df 623f f626 ad3f f2ad 323f 6adc 1d40
00000060: 676a 543f 16c9 493f b234 333f 309d 443f
00000070: 7fdb 943f 224a 363f cbd4 963f 9f56 2f3f
00000080: 9097 493f e252 1b3f e84d 423f 93c4 493f
00000090: c81a 483f c129 473f f0b3 463f d5a1 4e3f
000000a0: 2340 a13f c3a9 343f 0f55 243f 5ec3 ee3e
000000b0: ca63 6d3f 3365 9d3f bb15 433f fae7 353f
000000c0: ab7e 513f ccee 893f e7bd 4a3f 060a 0f3f
000000d0: b8aa fa3e 1c49 773f 6a85 8f3f d572 4f3f
000000e0: 3d3f 443f b5a5 ce3f 97a2 203f 4c90 823f
000000f0: c9cb 753f a149 9a3f 687c ad3f 721d 6a3f
00000100: 9e28 9d3f 43d9 413f fb83 383f 0bbf 4f3f
00000110: e46c a83f 94fe 513f 5764 aa3f 9bb3 7b3f
00000120: 9c04 8d3f cf39 593f 7571 5a3f be79 a23f
00000130: c828 9f3f 02b4 523f f8da ab3f 0a6f 9b3f
00000140: 4392 3b3f 2416 6c3f 72b4 083f 4b94 553f
00000150: bc9c 103f c149 5d3f 015d 533f 6b71 443f
00000160: af81 4a3f bcd8 5d3f 038b 1e3f f273 a83f
00000170: 73a6 113f b9ac 813f 8a5b 2e3f a571 9d3f
00000180: 9836 4b3f a410 bb3e 2952 9b3f f247 533f
00000190: 8ecf 9b3f 8408 693f 057e a13f c357 b13f
000001a0: deef 693f 1fa6 683f fc86 be3f 9751 543f
000001b0: 9f84 183f 60bd 363f ec78 ec3f cc34 0d3f
000001c0: bb6c 093f 83d9 b23f 6f57 5d3f 9522 3e3f
000001d0: de80 683f 2384 583f 3312 483f 9c3a 1340
000001e0: 4f51 f63f 18e4 653f c52c d53f 541f 3e3f
000001f0: 8209 373f 9dd5 543f 7918 733f 72d3 803f

first_eye.9.bias f4 [128]
-0.45465633 -0.46727642 -0.004226797 -0.7467927 -0.7133952 -0.6857099 -0.25108978 -0.5450321
-0.6952629 -0.44563362 -0.10407544 0.30352095 -0.2274313 0.004558725 -0.14118236 -0.017017208
-0.5260635 -0.29933718 -0.18981777 -0.38640022 -0.051834237 0.07449194 -0.32469836 0.7911414
-0.49264368 -0.37511843 -0.33723962 -0.14633177 -0.031058384 -0.32371688 0.017263303 -0.085014775
-0.42680857 -0.37209812 -0.21058162 -0.3955038 -0.29103443 -0.2386297 -0.5739087 -0.41736147
-0.28825596 -0.5341851 -0.46569517 -0.41489422 -0.39382422 0.400853 -0.3725712 -0.13921058
-0.17013 -0.20285779 -0.43698314 -0.20656052 -0.13874708 -0.49729654 -0.6089819 -0.11035973
-0.45729548 0.30681053 -0.074480414 0.09661668 -0.21047437 0.030440819 -0.42350054 -0.14391206
0.09204917 -0.58189887 -0.44309914 -0.37025458 -0.028788501 -0.26031727 -0.36144722 -0.24072725
-0.47734463 -0.34797606 -0.30882594 -0.09073828 -0.44084752 -0.054281965 0.07202016 -0.20349565
-0.07378532 -1.0081378 -0.3393682 -0.34712973 -0.03246459 0.10892005 -0.4219172 -0.29861972
-0.4052722 -0.41316175 -0.41838765 -0.12336276 -0.28235424 -0.24258268 -0.41571113 -0.038546093
0.0027373922 -0.28177962 -0.1638652 -0.18693121 -0.4245937 -0.32697693 -0.14135161 -0.20152675
-0.507863 -0.45175377 -0.16610827 -0.8881594 -0.3508848 -0.34537178 0.47671732 -0.21552075
-0.4225676 -0.044632938 -0.19711518 -0.11462922 -0.06560627 0.029267492 0.12359269 -0.42676526
0.4384305 -0.14876483 0.22084631 -0.24535476 -0.6436506 -0.03582751 -0.399693 -0.3273521
00000000: b7c8 e8be db3e efbe f180 8abb ce2d 3fbf
00000010: 11a1 36bf af8a 2fbf d78e 80be 3987 0bbf
00000020: c0fc 31bf 172a e4be 8125 d5bd 1967 9b3e
00000030: c0e3 68be 5b61 953b 1c92 10be ac67 8bbc
00000040: 19ac 06bf b942 99be 975f 42be 40d6 c5be
00000050: 2350 54bd 3b8f 983d dd3e a6be 3e88 4a3f
00000060: cb3b fcbe 860f c0be acaa acbe ffd7 15be
00000070: 276e febc 38be a5be c56b 8d3c 3a1c aebd
00000080: a786 dabe a583 bebe b5a2 57be 797f cabe
00000090: 7702 95be 585b 74be aeeb 12bf 67b0 d5be
000000a0: 4996 93be 5bc0 08bf 996f eebe 046d d4be
000000b0: 54a3 c9be 9b3c cd3e a7c1 bebe 388d 0ebe
000000c0: 8f36 2ebe f4b9 4fbe 41bc dfbe 9a84 53be
000000d0: b713 0ebe a79d febe 3de6 1bbf 4804 e2bd
000000e0: a222 eabe 4516 9d3e 3089 98bd f7de c53d
000000f0: 9886 57be 065f f93c 10d5 d8be af5d 13be
00000100: 4684 bc3d 53f7 14bf e4dd e2be 0292 bdbe
00000110: ddd5 ebbc 4e48 85be 9c0f b9be 3481 76be
00000120: 8466 f4be eb29 b2be 6f1e 9ebe fed4 b9bd
00000130: c4b6 e1be c456 5ebd 4e7f 933d 2a61 50be
00000140: c21c 97bd a90a 81bf abc1 adbe fdba b1be
00000150: 97f9 04bd 7a11 df3d 8805 d8be afe4 98be
00000160: d67f cfbe f089 d3be e836 d6be 9da5 fcbd
00000170: bc90 90be 9867 78be 17d8 d4be 82e2 1dbd
00000180: d265 333b 6b45 90be 47cc 27be e56a 3fbe
00000190: 5864 d9be 8569 a7be 7abe 10be 075d 4ebe
000001a0: 4f03 02bf 454c e7be 4918 2abe 6a5e 63bf
000001b0: 2ca7 b3be 92d4 b0be 4b14 f43e 79b1 5cbe
000001c0: c85a d8be 07d1 36bd 90d8 49be b9c2 eabd
000001d0: 955c 86bd 61c2 ef3c 2a1e fd3d fa80 dabe
000001e0: f679 e03e cf55 18be 8925 623e 473e 7bbe
000001f0: 49c6 24bf debf 12bd 90a4 ccbe b29a a7be

first_eye.9.running_mean f4 [128]
-1.3335015 1.1379052 -2.8500185 -1.4346927 0.16578706 -0.6294619 -1.831974 -0.053213768
-0.43697584 -0.038997587 0.39561784 -1.7209703 -0.39628997 -3.282862 -0.51971674 -2.2501705
-2.9696941 0.71139914 -1.5237821 -0.08614673 0.14706509 -3.2389684 0.42740124 -2.9622314
0.14814349 0.10522599 -1.3693109 -1.6393019 -2.5448704 -0.2783545 0.15630104 0.075178795
0.60097426 -0.6178056 0.10607317 0.40407 -0.32694036 -2.5766468 -0.16345184 1.5035815
0.79957515 -0.5155144 0.8668552 0.22752148 1.309232 3.1997557 -2.1582708 0.06715726
-1.6557151 -2.8010356 -0.9044096 -0.4360865 0.12751867 3.2582917 0.8712338 0.42735752
0.14624552 0.8418042 -1.671919 -0.8554611 -2.612462 -1.6242812 1.8216375 -1.8732066
-0.67587054 -0.2256937 -1.0746753 -3.2908504 -3.7757618 0.22349046 1.2023534 -3.2987397
-0.6372831 1.2695959 -0.79842013 0.44247714 0.11073144 -0.10999424 -0.47124067 -0.06532305
1.2820946 0.0015593893 1.0856802 0.085866466 0.049522426 -1.0002728 1.0306594 0.1124195
-0.13974062 -0.00020590928 0.45098165 -1.5656216 -0.45420375 0.00685562 0.99678254 -2.9789562
-0.17840467 -1.0167254 -1.5729549 -1.8088663 -0.08053741 -2.0329313 0.6925411 -2.7414703
-0.68155795 -0.9865666 -1.6390269 0.38026282 -0.5696789 -0.019094095 -0.8250993 -0.9291891
-0.25408897 0.5864061 -0.22559714 -0.8884435 -0.7208067 -0.1462324 -0.9677403 0.6351832
-5.4782634 -1.5466106 2.0701501 1.6477257 1.182968 -1.1755292 -0.6884978 -1.8821126
00000000: 2db0 aabf e1a6 913f b466 36c0 03a4 b7bf
00000010: 15c4 293e 6a24 21bf 207e eabf aef6 59bd
00000020: 4cbb dfbe efbb 1fbd 6c8e ca3e c148 dcbf
00000030: 85e6 cabe 691a 52c0 280c 05bf cb02 10c0
00000040: 780f 3ec0 411e 363f 4b0b c3bf b26d b0bd
00000050: 3b98 163e 424b 4fc0 56d4 da3e 3395 3dc0
00000060: edb2 173e b980 d73d 9445 afbf a5d4 d1bf
00000070: 28df 22c0 7b84 8ebe 610d 203e 57f7 993d
00000080: 73d9 193f 8228 1ebf e43c d93d 43e2 ce3e
00000090: ba64 a7be c8e7 24c0 eb5f 27be 5c75 c03f
000000a0: f5b0 4c3f c0f8 03bf 39ea 5d3f 64fb 683e
000000b0: ea94 a73f ccc8 4c40 1c21 0ac0 bf89 893d
000000c0: 79ee d3bf 2b44 33c0 6387 67bf bb46 dfbe
000000d0: 4194 023e da87 5040 2e09 5f3f 9bce da3e
000000e0: 63c1 153e 7b80 573f 7101 d6bf 80ff 5abf
000000f0: 9432 27c0 72e8 cfbf 6b2b e93f 3cc5 efbf
00000100: da05 2dbf 401c 67be f68e 89bf 4b9d 52c0
00000110: 15a6 71c0 afda 643e b7e6 993f 8d1e 53c0
00000120: fc24 23bf 1e82 a23f 4365 4cbf 5d8c e23e
00000130: 2ac7 e23d a944 e1bd 7546 f1be 17c8 85bd
00000140: ad1b a43f 6c64 cc3a 92f7 8a3f c2da af3d
00000150: 07d8 4a3d f008 80bf a6ec 833f 323c e63d
00000160: 2a18 0fbe 5ae9 57b9 11e7 e63e 4a66 c8bf
00000170: 658d e8be 1ca5 e03b 242d 7f3f 38a7 3ec0
00000180: b7af 36be 0f24 82bf 9656 c9bf ee88 e7bf
00000190: ccf0 a4bd 8c1b 02c0 604a 313f 4074 2fc0
000001a0: 957a 2ebf a18f 7cbf a2cb d1bf cfb1 c23e
000001b0: 7ad6 11bf 386b 9cbc b539 53bf 56df 6dbf
000001c0: f317 82be b61e 163f f002 67be 0971 63bf
000001d0: ca86 38bf f2bd 15be d4bd 77bf 5e9b 223f
000001e0: ef4d afc0 56f7 c5bf 577d 0440 ade8 d23f
000001f0: 7f6b 973f be77 96bf 6441 30bf 11e9 f0bf

first_eye.9.running_var f4 [128]
15.9315195 32.611248 79.13068 20.93087 36.575966 41.120678 63.44132 28.424057
41.040432 66.22547 23.050749 34.331482 68.25566 37.47295 88.771255 81.70288
50.900173 68.12169 16.930784 63.241142 92.91082 53.45211 68.406685 75.51769
40.109467 35.882828 45.20906 68.947136 24.497784 37.78533 19.896767 63.36458
21.471601 60.48935 32.599796 71.090004 27.906704 42.83138 70.99101 19.14249
32.17102 68.06279 12.509981 85.63898 28.370407 81.59604 65.08092 56.63084
29.846657 39.083313 57.300365 69.01895 82.11124 25.109285 38.43654 49.88611
55.36554 48.58118 109.101585 47.903267 21.857763 36.329926 31.304325 33.55896
33.08905 32.17888 55.66427 40.40221 39.46915 33.650352 42.952858 26.62861
33.94377 21.184622 73.37245 27.64877 17.534697 32.214172 36.73149 24.547186
63.921658 38.646572 59.06752 18.9502 82.10364 60.078785 87.16852 30.807297
41.537094 67.7014 10.741972 45.264385 47.49344 31.563831 21.703585 34.44931
75.470055 43.46835 34.09178 92.275665 31.940155 59.5041 42.452286 31.655895
43.494473 78.48368 116.6791 32.109386 42.841713 104.356766 47.599735 88.780464
49.7582 47.094666 76.36279 51.364098 33.955994 24.192915 153.07027 73.45345
75.495094 29.786032 32.529255 15.849218 36.557125 83.27174 27.989906 109.52645
00000000: 81e7 7e41 eb71 0242 e842 9e42 6c72 a741
00000010: ca4d 1242 937b 2442 e9c3 7d42 7864 e341
00000020: 6729 2442 7173 8442 ef67 b841 7053 0942
00000030: e682 8842 4de4 1542 e28a b142 e067 a342
00000040: c799 4b42 4e3e 8842 3f72 8741 eef6 7c42
00000050: 57d2 b942 f6ce 5542 39d0 8842 0f09 9742
00000060: 1870 2042 0488 0f42 14d6 3442 efe4 8942
00000070: 76fb c341 2e24 1742 942c 9f41 5475 7d42
00000080: d7c5 ab41 18f5 7142 3166 0242 152e 8e42
00000090: ee40 df41 5553 2b42 66fb 8d42 d223 9941
000000a0: 20af 0042 2620 8842 e228 4841 2847 ab42
000000b0: 98f6 e241 2c31 a342 6e29 8242 fb85 6242
000000c0: f4c5 ee41 5055 1c42 9333 6542 b409 8a42
000000d0: f438 a442 d1df c841 04bf 1942 608b 4742
000000e0: 5076 5d42 2153 4242 0334 da42 f29c 3f42
000000f0: b3dc ae41 d851 1142 426f fa41 603c 0642
00000100: 305b 0442 2cb7 0042 36a8 5e42 dd9b 2142
00000110: 69e0 1d42 f699 0642 bacf 2b42 6507 d541
00000120: 6cc6 0742 1b7a a941 b2be 9242 ae30 dd41
00000130: 0f47 8c41 50db 0042 0ced 1242 a360 c441
00000140: c7af 7f42 1796 1a42 2445 6c42 029a 9741
00000150: 1035 a442 ad50 7042 4856 ae42 5875 f641
00000160: fc25 2642 1e67 8742 1edf 2b41 bb0e 3542
00000170: 48f9 3d42 ba82 fc41 f1a0 ad41 18cc 0942
00000180: abf0 9642 97df 2d42 fc5d 0842 248d b842
00000190: 7085 ff41 3304 6e42 24cf 2942 463f fd41
000001a0: 57fa 2d42 a5f7 9c42 b35b e942 0370 0042
000001b0: ea5d 2b42 aab6 d042 2166 3e42 998f b142
000001c0: 6608 4742 f060 3c42 c0b9 9842 d674 4d42
000001d0: f0d2 0742 178b c141 fd11 1943 2be8 9242
000001e0: 7dfd 9642 cb49 ee41 f51d 0242 6696 7d41
000001f0: 7f3a 1242 228b a642 54eb df41 8b0d db42
